version2/models/lora/medical_lora.safetensors (safetensors, 105376 bytes, 20 tensors)

lora_unet_down_blocks_0.lora_down.weight f4 [4, 320]
1.5247833 0.7603739 0.40432182 -1.9152942 -0.34070033 -0.14051725 -1.8638794 -1.3483893
0.53310037 -1.4666865 -0.21214963 0.1078106 0.7921819 -0.32991663 -1.0388349 -0.94794583
1.2584896 -1.0702806 0.6187361 0.6746025 -0.084469825 1.1672469 -0.059962224 0.027022203
1.2620324 -0.1029291 1.1332245 -1.5813305 -0.8685359 1.2091408 -1.3459449 -0.37294427
0.4844131 -0.43153137 0.3278069 -1.2842363 0.33628336 -2.179454 -1.9006239 1.1922115
0.63505036 1.503821 1.594105 -2.2889059 -2.1345243 1.8408014 0.43566284 1.2677816
0.37999445 1.4599936 -0.6928477 0.5075988 0.86826867 0.11431603 0.52902704 0.74279445
1.155762 -0.48940733 0.57746893 2.4029763 1.3975179 -0.056737553 0.4932901 -0.31426427
1.1152827 0.54371303 -1.1473432 1.263482 -0.2641435 -0.41316262 -2.3991373 -2.6493254
-0.50709295 -0.5732243 1.1808081 0.9776011 -0.21367541 -0.35342133 -2.474802 1.6650046
0.5673814 -0.23907913 1.0445313 0.20273426 1.1498036 -0.7512859 0.0036318523 -1.2713536
0.07398968 -1.1552569 -1.1927338 -0.07886661 0.43705466 1.0024341 0.34291795 0.2596214
0.25181308 0.32140076 -1.2301788 0.94832414 0.8699742 1.330041 1.1640931 0.63998526
-0.2636016 -0.61640775 2.5717664 -1.523939 -0.31608787 -1.1615056 -2.1936965 -0.57323855
0.42937815 -0.66345143 -1.5005964 2.0445406 1.0243797 0.98189354 -0.6177842 -0.26980317
0.6370773 -0.6065261 -0.73683363 -0.8059519 1.4372634 0.50284153 0.6095882 -0.641471
-0.016245777 -0.21353109 0.56597346 1.046414 0.5146927 0.09279881 -0.5781091 -0.93702304
1.3056997 -1.1657685 -0.4802132 -3.0866609 2.0616171 -0.59107864 -0.61442065 -1.4164063
-0.26019773 -0.44530046 -1.1374818 0.95766693 0.27834022 -1.6541374 -0.7972836 0.7332304
0.9992678 -0.35408533 0.06962151 -0.55745184 0.8887409 -2.0855138 0.4875142 -0.64060056
0.29588538 -0.6615167 -1.3312261 -0.25573623 -0.35336974 -1.0793935 -0.4121576 0.31105754
-0.42420945 3.2741845 0.35899556 0.6391249 0.56885856 -0.60931635 -1.0202905 1.0415199
-1.5414346 0.86759454 -0.016349252 1.3882679 0.5901614 -1.9090497 0.9865811 -1.2738069
0.48088133 0.8754214 1.4167591 -0.5106967 2.2481475 0.8283801 -0.07720433 1.2019743
-0.64003253 0.5194948 -0.55544215 -0.26495937 -1.6369005 -2.185974 0.49862823 -0.10421327
2.1438258 0.09845456 -0.7389113 0.5982229 0.13962188 -0.31790528 0.040209733 -0.010473846
-2.0027199 -0.57725906 -0.11482484 -0.19372617 0.2591667 -0.16030952 0.7670994 -1.2197131
-0.53198314 -1.7085989 0.57294023 0.05035705 -0.66741806 0.11661627 0.9621665 -1.0245925
-1.557389 0.03796075 1.8790398 1.6255087 0.9080864 -1.6807892 0.0054896795 -1.0354345
-1.4193045 1.2286261 0.7761011 0.37024564 -0.13172746 -0.83669835 0.6327702 0.21056944
0.58213645 -0.15340517 1.0184432 -0.68938583 -0.62332493 0.43187332 -1.0426097 -0.027665379
0.7818212 1.285704 1.3054894 1.4586114 1.9006131 -0.52704316 -0.9997147 0.0903071
00000000: 192c c33f dda7 423f 4503 cf3e 5c28 f5bf
00000010: 4670 aebe c1e3 0fbe 9a93 eebf 0598 acbf
00000020: 4479 083f 62bc bbbf c13d 59be cecb dc3d
00000030: 6fcc 4a3f d5ea a8be 8bf8 84bf 94ac 72bf
00000040: 3016 a13f f4fe 88bf 7d65 1e3f c0b2 2c3f
00000050: 84fe acbd 5968 953f f39a 75bd ab5d dd3c
00000060: 478a a13f 7ecc d2bd 800d 913f 0a69 cabf
00000070: 5e58 5ebf 20c5 9a3f ec47 acbf 8df2 bebe
00000080: fe04 f83e aef1 dcbe 4ed6 a73e db61 a4bf
00000090: 552d ac3e 2d7c 0bc0 a547 f3bf 639a 983f
000000a0: a992 223f 357d c03f a20b cc3f 6f7d 12c0
000000b0: 0c9c 08c0 619f eb3f 330f df3e ab46 a23f
000000c0: a28e c23e 12e1 ba3f 785e 31bf fff1 013f
000000d0: db46 5e3f 861e ea3d 516e 073f c727 3e3f
000000e0: 02f0 933f 9993 fabe 01d5 133f 5dca 1940
000000f0: dee1 b23f a365 68bd 8590 fc3e 3fe7 a0be
00000100: 95c1 8e3f c730 0b3f 24dc 92bf c7b9 a13f
00000110: d13d 87be 0d8a d3be 778b 19c0 8c8e 29c0
00000120: d8d0 01bf d4be 12bf b824 973f 1144 7a3f
00000130: bacd 5abe a4f3 b4be 2863 1ec0 df1e d53f
00000140: e83f 113f 29d1 74be 34b3 853f 9299 4f3e
00000150: c42c 933f 4654 40bf 5f04 6e3b b7bb a2bf
00000160: e787 973d 75df 93bf 80ab 98bf d184 a1bd
00000170: a1c5 df3e c34f 803f f192 af3e 19ed 843e
00000180: a5ed 803e a48e a43e 8076 9dbf 5fc5 723f
00000190: a1b6 5e3f c93e aa3f 0101 953f 13d6 233f
000001a0: caf6 86be e6cc 1dbf d297 2440 6f10 c3bf
000001b0: 45d6 a1be 37ac 94bf 8665 0cc0 c3bf 12bf
000001c0: 74d7 db3e f4d7 29bf 8b13 c0bf c1d9 0240
000001d0: e01e 833f 605d 7b3f 1b27 1ebf a423 8abe
000001e0: 7f17 233f 4b45 1bbf 21a1 3cbf dd52 4ebf
000001f0: 3ff8 b73f 39ba 003f f90d 1c3f 7237 24bf
00000200: dd15 85bc e5a7 5abe a3e3 103f e5f0 853f
00000210: e7c2 033f 4d0d be3d f5fe 13bf bee0 6fbf
00000220: 2b21 a73f e737 95bf 81de f5be da8b 45c0
00000230: 89f1 0340 ee50 17bf ac4a 1dbf cd4c b5bf
00000240: a338 85be 6cfe e3be 0199 91bf a929 753f
00000250: 9c82 8e3e c6ba d3bf c71a 4cbf fdb4 3b3f
00000260: 04d0 7f3f ac4a b5be b995 8e3d 2ab5 0ebf
00000270: 8684 633f 0f79 05c0 769b f93e 66fe 23bf
00000280: 4a7e 973e 2959 29bf 9e65 aabf dcef 82be
00000290: e1ec b4be 9129 8abf 5206 d3be ef42 9f3e
000002a0: fb31 d9be 3d8c 5140 44ce b73e b09d 233f
000002b0: b7a0 113f 28fc 1bbf e198 82bf 8650 853f
000002c0: bb4d c5bf ad1a 5e3f deee 85bc c3b2 b13f
000002d0: d114 173f be5b f4bf 9490 7c3f 1b0c a3bf
000002e0: 1436 f63e 9e1b 603f 5d58 b53f 05bd 02bf
000002f0: a6e1 0f40 b810 543f 4e1d 9ebd 4bda 993f
00000300: 2cd9 23bf 9cfd 043f 7531 0ebf c1a8 87be
00000310: f585 d1bf ffe6 0bc0 334c ff3e c46d d5bd
00000320: 7134 0940 8ba2 c93d 4a29 3dbf 2325 193f
00000330: 0af9 0e3e 7bc4 a2be f6b2 243d 7f9a 2bbc
00000340: 902c 00c0 40c7 13bf 4929 ebbd 2760 46be
00000350: 7fb1 843e 2e28 24be a060 443f 8f1f 9cbf
00000360: 0c30 08bf 5eb3 dabf 36ac 123f 3243 4e3d
00000370: e9db 2abf 83d4 ee3d 8b50 763f d925 83bf
00000380: 8658 c7bf bb7c 1b3d 6084 f03f ab10 d03f
00000390: 5a78 683f 1a24 d7bf c5e2 b33b 1e89 84bf
000003a0: c5ab b5bf 9f43 9d3f 90ae 463f d690 bd3e
000003b0: 90e3 06be dd31 56bf 3afd 213f 849f 573e
000003c0: e506 153f 3f16 1dbe 595c 823f 977b 30bf
000003d0: 3992 1fbf 801e dd3e 3c74 85bf 81a2 e2bc
000003e0: 6f25 483f f391 a43f 471a a73f c7b3 ba3f
000003f0: 4a47 f33f 4dec 06bf 4ded 7fbf eef2 b83d

lora_unet_down_blocks_0.lora_up.weight f4 [320, 4]
-1.7059046 -0.6075742 -0.69667673 -0.02326558 1.2278168 -0.22402471 2.1673431 1.5315924
1.4294845 0.22103205 -2.067221 -2.1787906 1.2010976 -0.49865022 0.42307812 0.80838746
0.43263483 -0.2213513 -2.6117885 0.6768506 0.050585203 -1.3428189 0.9860081 0.613331
-0.73592174 0.43612245 -2.2879515 -1.1887381 0.54447836 0.29744133 -0.16713904 -1.1149656
-1.4074045 1.034171 -2.027651 0.3113843 1.5332067 -0.35248613 -0.58816427 0.36213225
-2.1372979 -1.1664033 1.5744123 0.012993616 0.90666974 -1.6023988 -0.4881845 0.09558358
0.7652509 0.0655564 0.5374205 -0.1448537 -0.011562614 -0.71186984 -1.0890012 -1.2514186
-1.0377812 0.031135155 0.9206887 -0.828025 -0.8460839 -0.703974 0.46147892 -0.11036537
0.2889134 0.5024938 -0.081905656 -0.3123936 -0.3094555 -0.44158804 -0.874392 1.0232394
-1.1714387 0.35069317 0.65685153 -1.2784729 -0.5303716 0.6582681 -0.28224465 -0.5939534
-1.2975456 0.6016722 -0.89154804 0.13885157 1.4003544 -0.9108789 1.171603 3.1738453
-0.84476656 0.70655406 -0.110174276 1.5312536 2.2430973 -0.6719805 -0.29348794 1.7040095
-0.31516987 0.04146841 -0.13753383 -1.2861047 -0.20080571 0.04100207 -1.070934 -2.1166444
-0.14228973 0.88602966 0.16799548 -0.0018150641 0.58151776 1.5125321 -0.17318851 -0.32330954
-0.9020968 -0.014631049 -1.3839085 1.3432846 0.5234742 1.7425581 1.8947295 0.33750677
1.8054271 -0.7959347 -0.20015894 0.8549404 -0.25747144 -1.049607 -0.8439773 2.17797
0.08762461 1.1464598 -0.11545643 -2.4456904 -0.3126849 2.0380735 0.11618445 -0.51742923
-0.0075563933 0.76055825 -0.59914917 -0.61413467 1.2693827 0.9301583 -0.33790717 0.24898103
-0.27757674 3.388514 1.0906711 0.16234423 1.6496229 0.5045339 0.6047885 -0.047065277
0.268939 -1.1074703 -0.022231305 -0.9485229 -0.9452993 0.11294998 -0.123765126 0.043515187
0.10383323 1.1186757 -0.91340566 0.59512794 -0.029221512 -0.80424404 -1.0223528 -0.23986442
1.4237018 0.18270391 1.1802562 -0.37296277 0.19941887 1.3220996 -1.5429628 0.3998509
-1.7771906 -1.9615613 -0.070715025 0.06477457 -1.2832578 -1.4842256 2.0437937 -0.11875148
-0.5117134 0.134896 0.8556644 0.14681694 -1.5199763 1.3900927 -1.9586167 -1.0000086
1.6581608 0.5819972 -1.4888427 0.25074995 1.0377896 -1.536723 1.2479376 0.6258065
-0.2100454 -1.5853823 -0.8249715 -0.29846093 -0.63724005 0.3334253 -0.42039117 0.8704325
-0.7996252 0.617219 0.9587411 -0.3550488 1.0112243 -0.6165735 -0.2767453 -1.1565342
2.1520236 0.3953109 -0.7356925 -0.34213513 -0.15553634 0.09375833 -0.5430616 0.6797066
1.0367326 -2.3637812 0.124734156 0.49960557 -0.34144068 -0.39439237 0.4320153 1.8928787
-1.075772 -1.1416222 1.2880244 1.2369571 -0.65934706 0.7676122 0.75375974 -0.8973691
-0.90676075 -1.3594583 -1.2404361 1.855673 -1.4339755 0.47333226 2.270116 0.6618949
0.9102385 -0.821315 0.6489705 3.5655003 -0.31111723 -0.94211113 1.7666174 0.53096527
00000000: 155b dabf fc89 1bbf 6859 32bf 7597 bebc
00000010: 1a29 9d3f bc66 65be c0b5 0a40 380b c43f
00000020: 59f9 b63f 3a56 623e 594d 04c0 4e71 0bc0
00000030: 91bd 993f 154f ffbe b29d d83e 7bf2 4e3f
00000040: 5082 dd3e eaa9 62be 8b27 27c0 1546 2d3f
00000050: 6e32 4f3d 7de1 abbf 076b 7c3f 4303 1d3f
00000060: 5e65 3cbf 714b df3e cc6d 12c0 9228 98bf
00000070: ef62 0b3f 3b4a 983e 7f26 2bbe 31b7 8ebf
00000080: d525 b4bf b75f 843f 09c5 01c0 c36d 9f3e
00000090: 1e40 c43f 1079 b4be ef91 16bf 6669 b93e
000000a0: 7dc9 08c0 b44c 95bf 5886 c93f 2de3 543c
000000b0: 821b 683f 671b cdbf 52f3 f9be 53c1 c33d
000000c0: 7ce7 433f 6f42 863d 6494 093f 8754 14be
000000d0: 1e71 3dbc 1a3d 36bf 6464 8bbf 7c2e a0bf
000000e0: 04d6 84bf 270f ff3c 41b2 6b3f 72f9 53bf
000000f0: f498 58bf a437 34bf f746 ec3e 3d07 e2bd
00000100: 75ec 933e 6fa3 003f 27be a7bd 0ef2 9fbe
00000110: f470 9ebe d417 e2be 27d8 5fbf 82f9 823f
00000120: b4f1 95bf 0e8e b33e 6c27 283f 00a5 a3bf
00000130: 6fc6 07bf 4284 283f 5f82 90be 540d 18bf
00000140: f915 a6bf 3007 1a3f 7e3c 64bf 1b2f 0e3e
00000150: d03e b33f 5c2f 69bf 16f7 953f 4820 4b40
00000160: 9f42 58bf bae0 343f 0da3 e1bd 1e00 c43f
00000170: e88e 0f40 ea06 2cbf 0d44 96be fc1c da3f
00000180: f25d a1be c8da 293d abd5 0cbe 149f a4bf
00000190: 03a0 4dbe c9f1 273d 5e14 89bf 1a77 07c0
000001a0: 66b4 11be d7d2 623f 0207 2c3e 72e7 edba
000001b0: 59de 143f a79a c13f 5458 31be d488 a5be
000001c0: d1ef 66bf 11b7 6fbc ea23 b1bf c0f0 ab3f
000001d0: 6802 063f 250c df3f 7f86 f23f b0cd ac3e
000001e0: 3c18 e73f 60c2 4bbf 77f6 4cbe 60dd 5a3f
000001f0: 4cd3 83be 8659 86bf e50e 58bf dc63 0b40
00000200: 8874 b33d 32bf 923f 6c74 ecbd 3186 1cc0
00000210: 3c18 a0be cc6f 0240 1df2 ed3d 3e76 04bf
00000220: 9f9b f7bb f2b3 423f d761 19bf ee37 1dbf
00000230: 227b a23f db1e 6e3f 2b02 adbe e2f4 7e3e
00000240: 8a1e 8ebe 6add 5840 1c9b 8b3f 913d 263e
00000250: d826 d33f 2229 013f 6bd3 1a3f 85c7 40bd
00000260: 5fb2 893e 96c1 8dbf 6d1e b6bc 66d2 72bf
00000270: 23ff 71bf 5252 e73d 9278 fdbd fb3c 323d
00000280: 84a6 d43d c430 8f3f f4d4 69bf 4e5a 183f
00000290: f461 efbc f0e2 4dbf 75dc 82bf 059f 75be
000002a0: dc3b b63f bc16 3b3e a312 973f faf4 bebe
000002b0: 7634 4c3e 8f3a a93f ce7f c5bf 42b9 cc3e
000002c0: fb7a e3bf 7114 fbbf 0ad3 90bd 88a8 843d
000002d0: cb41 a4bf 1bfb bdbf 84cd 0240 fa33 f3bd
000002e0: a6ff 02bf 2d22 0a3e d20c 5b3f 2e57 163e
000002f0: 958e c2bf 8fee b13f f4b3 fabf 4800 80bf
00000300: 9d3e d43f c5fd 143f 6692 bebf 4c62 803e
00000310: 4ad6 843f 57b3 c4bf 6bbc 9f3f db34 203f
00000320: 2416 57be cfed cabf 5531 53bf dfcf 98be
00000330: 2a22 23bf b9b6 aa3e 833d d7be aad4 5e3f
00000340: 3db4 4cbf 1002 1e3f 0f70 753f f5c8 b5be
00000350: cc6f 813f c3d7 1dbf 8fb1 8dbe 5009 94bf
00000360: c1ba 0940 3166 ca3e 5856 3cbf 562c afbe
00000370: eb44 1fbe 5e04 c03d 1606 0bbf 4001 2e3f
00000380: a7b3 843f 3148 17c0 9f74 ff3d 4dcc ff3e
00000390: 50d1 aebe cced c9be 1c31 dd3e d949 f23f
000003a0: e6b2 89bf ad20 92bf fcdd a43f 9c54 9e3f
000003b0: f8ca 28bf 3c82 443f 66f6 403f fbb9 65bf
000003c0: 7921 68bf bb02 aebf 9cc6 9ebf b186 ed3f
000003d0: 828c b7bf 9b58 f23e 9549 1140 f271 293f
000003e0: 6405 693f b341 52bf ee22 263f 2831 6440
000003f0: c24a 9fbe 322e 71bf 8520 e23f 57ed 073f

lora_unet_down_blocks_1.lora_down.weight f4 [4, 320]
-0.8777293 2.111795 0.098821804 -0.99208146 -0.4823311 -0.13592046 -1.2200744 0.07498249
1.1371728 1.0866624 0.41420722 1.688983 0.7600223 0.6519068 0.36539564 0.45447847
-1.0211664 0.16959572 1.9136915 -0.008195315 1.4349614 1.199624 -1.0985956 -0.40810812
-0.26697093 -0.84285605 -0.46038437 0.62985075 -1.1742132 -0.61660653 1.0648942 -0.22539896
1.0693339 0.791417 -0.06358038 -2.224861 -0.67438847 1.0828555 1.1384478 1.2802813
1.1300899 -0.26805797 -1.7879828 -1.6617436 -0.9163139 -1.5803434 -0.5997875 -0.8543586
0.387834 -0.031200262 -0.9230034 0.20129198 -2.360224 0.46064168 0.89512914 -1.1556442
0.09694379 1.0525185 -0.43022835 0.8928052 1.592736 2.0479946 0.29069805 -1.392912
0.33894008 0.36568928 -1.2036185 0.081488565 1.5567977 -0.25591165 -3.3622754 0.4980488
0.96410596 -0.044365514 0.8611662 0.9893994 1.0301778 0.47136444 0.36892027 0.2817412
-0.9767006 -0.96883446 0.37842113 0.48770076 1.1407439 0.4819422 -0.0036480718 0.4020049
0.76860046 1.531743 -0.94446784 -0.06764141 0.6902208 1.0096054 -0.4948535 1.2464751
0.13340063 0.4642599 -1.8686153 -0.9720698 0.82464087 0.47156656 -0.1995199 -1.8829952
0.48507625 1.7172605 -0.5011281 -0.9387926 -0.0841604 0.98989815 1.3038076 1.2890658
-0.62205875 -1.8899864 0.471719 -0.7301041 -0.4238305 0.34990746 0.6311731 -0.40502965
0.24237026 -0.09933697 -1.0135031 2.5851 -0.8181508 -1.1468434 0.87105834 -1.6427433
-0.509518 1.1813059 -0.67247117 -1.0687382 1.2559959 -1.254932 -0.31520817 -0.8109354
-1.7350944 1.1848418 -1.1394744 -1.9190564 0.97785145 -1.7803917 -0.25400215 1.9052731
0.0919302 -0.32741114 0.106601246 -0.30604523 0.100763485 0.9885987 -2.2666588 0.46107098
-0.30846596 -1.3842311 -0.8712555 0.41328233 -0.9583498 0.63799804 0.7845217 0.1023789
-0.46610186 1.4199243 -0.29072332 -0.7138629 -0.0023792796 0.5247751 -0.017747257 0.33743358
-0.046033096 0.18652853 -1.4174143 -0.79862845 0.48128733 -0.20416886 -0.864204 2.2108
-0.2988782 0.5249036 0.31128144 -0.3803702 -0.29226512 1.114122 -0.20734903 0.07986633
1.6792037 0.013769071 0.020721328 -0.3011386 0.20589398 0.740282 -0.6197803 -0.023589367
0.34071898 2.5680737 -0.47259307 0.10516533 0.64086956 -1.7994238 0.08440092 0.43970403
0.36333954 -0.62759286 0.17376737 1.0718601 2.0247293 0.74374 -0.50428605 2.2342255
0.052167274 -0.23022527 -0.3962861 0.7712521 -1.4162319 -0.10622005 1.3068943 0.50043714
0.74519145 -1.1767691 -0.39575255 -0.865435 -0.933188 -0.35892186 -1.4499115 -0.60571
0.3790254 -0.18172553 0.17768122 1.6107403 0.7723008 -1.1113979 0.5731716 -0.3197933
-0.74014246 -1.6253538 0.85377294 1.5032489 -0.073954724 0.15513778 -0.2798716 1.0719115
-1.0258169 -2.0723748 0.027085131 -1.084122 -1.4759908 1.9693317 1.7443012 -0.85885274
-0.52545613 -0.045352776 1.4261038 -1.1924381 -0.45608327 0.43103543 1.5045809 -0.1093823
00000000: deb2 60bf a627 0740 1663 ca3d 0df9 7dbf
00000010: 1af4 f6be bc2e 0bbe 662b 9cbf 6b90 993d
00000020: e18e 913f c117 8b3f f812 d43e 9830 d83f
00000030: d290 423f 5de3 263f 2315 bb3e 67b1 e83e
00000040: 95b5 82bf 80aa 2d3e d8f3 f43f a445 06bc
00000050: d1ac b73f 478d 993f c89e 8cbf 8cf3 d0be
00000060: 6ab0 88be 6ac5 57bf 80b7 ebbe e63d 213f
00000070: 9e4c 96bf edd9 1dbf 744e 883f fcce 66be
00000080: efdf 883f 4e9a 4a3f 6e36 82bd 1f64 0ec0
00000090: b9a4 2cbf 029b 8a3f a8b8 913f 42e0 a33f
000000a0: c9a6 903f e53e 89be 9fdc e4bf 04b4 d4bf
000000b0: 8c93 6abf b148 cabf ac8b 19bf 3fb7 5abf
000000c0: 2e92 c63e b197 ffbc f349 6cbf 7c1f 4e3e
000000d0: e90d 17c0 3ad9 eb3e 2f27 653f 26ec 93bf
000000e0: 778a c63d edb8 863f e446 dcbe e28e 643f
000000f0: c6de cb3f 5812 0340 60d6 943e f14a b2bf
00000100: 8e89 ad3e a03b bb3e 2c10 9abf 7ae3 a63d
00000110: 2645 c73f da06 83be 852f 57c0 4100 ff3e
00000120: a6cf 763f 9db8 35bd 6375 5c3f 4749 7d3f
00000130: dedc 833f ae56 f13e 1ee3 bc3e 6240 903e
00000140: 0d09 7abf 8905 78bf 6ac0 c13e eab3 f93e
00000150: e503 923f 21c1 f63e 7d14 6fbb 96d3 cd3e
00000160: 00c3 443f 2810 c43f a5c8 71bf 9487 8abd
00000170: 4fb2 303f c03a 813f 705d fdbe 7f8c 9f3f
00000180: 2d9a 083e 79b3 ed3e c92e efbf 91d9 78bf
00000190: aa1b 533f 2c71 f13e f24e 4cbe fd05 f1bf
000001a0: ea5b f83e 31cf db3f ee49 00bf b654 70bf
000001b0: 4a5c acbd f769 7d3f 2be3 a63f 1c00 a53f
000001c0: 3e3f 1fbf 13eb f1bf 2785 f13e 1ae8 3abf
000001d0: 5000 d9be 1227 b33e 8f94 213f 0c60 cfbe
000001e0: e92f 783e 2e71 cbbd 78ba 81bf 4772 2540
000001f0: 5572 51bf c4cb 92bf aefd 5e3f 6a45 d2bf
00000200: c66f 02bf 0835 973f 1227 2cbf 6acc 88bf
00000210: 79c4 a03f 9da1 a0bf f762 a1be 7699 4fbf
00000220: 9317 debf e5a8 973f 4cda 91bf a4a3 f5bf
00000230: 7954 7a3f e0e3 e3bf 920c 82be fddf f33f
00000240: e745 bc3d 6fa2 a7be c151 da3d f6b1 9cbe
00000250: 165d ce3d ce14 7d3f f010 11c0 7f11 ec3e
00000260: 40ef 9dbe 7c2e b1bf 9a0a 5fbf be99 d33e
00000270: 6a56 75bf d753 233f 6ad6 483f 07ac d13d
00000280: e7a4 eebe 14c0 b53f b0d9 94be b8bf 36bf
00000290: b0ed 1bbb a957 063f b262 91bc 18c4 ac3e
000002a0: 338d 3cbd 5601 3f3e d56d b5bf ea72 4cbf
000002b0: 4b6b f63e a411 51be 793c 5dbf bf7d 0d40
000002c0: 9006 99be 1560 063f 4860 9f3e e2bf c2be
000002d0: c6a3 95be 8d9b 8e3f 4e53 54be f590 a33d
000002e0: 26f0 d63f ab97 613c c6bf a93c d72e 9abe
000002f0: dfd5 523e 1f83 3d3f eca9 1ebf 7d3e c1bc
00000300: b872 ae3e 525b 2440 b8f7 f1be ec60 d73d
00000310: 0710 243f 8553 e6bf 64da ac3d e320 e13e
00000320: a407 ba3e eda9 20bf 13f0 313e b632 893f
00000330: 2a95 0140 bf65 3e3f e418 01bf 8dfd 0e40
00000340: 5aad 553d 2cc0 6bbe 03e6 cabe c770 453f
00000350: 1647 b5bf e689 d9bd 5048 a73f a61c 003f
00000360: dec4 3e3f 5fa0 96bf 14a0 cabe 268d 5dbf
00000370: 69e5 6ebf 9bc4 b7be b396 b9bf d00f 1bbf
00000380: 9e0f c23e 4216 3abe 11f2 353e bd2c ce3f
00000390: 81b5 453f 4942 8ebf 60bb 123f f3bb a3be
000003a0: fa79 3dbf 980b d0bf dd90 5a3f 766a c03f
000003b0: 9375 97bd 70dc 1e3e 554b 8fbe 6534 893f
000003c0: f84d 83bf caa1 04c0 a3e1 dd3c 82c4 8abf
000003d0: 44ed bcbf 1013 fc3f 4345 df3f c6dd 5bbf
000003e0: 4b84 06bf d5c3 39bd 928a b63f d0a1 98bf
000003f0: bf83 e9be adb0 dc3e 1b96 c03f d403 e0bd

lora_unet_down_blocks_1.lora_up.weight f4 [320, 4]
0.77387947 2.058182 0.32506543 -0.34893876 -1.110063 0.3939865 -1.2832338 1.493559
-0.02003186 0.9157567 2.4391277 0.37712717 -1.3060083 0.9843955 -1.5110663 -1.3005735
-0.55355734 -0.28877586 -0.42227712 1.1585118 0.6207367 0.12176621 0.33298007 -1.4510174
1.0143018 0.50165844 0.19938226 -1.4139946 5.4862983e-05 -2.1668441 1.0610723 0.19816808
-0.08188164 -0.27245694 -0.29437414 -1.540635 0.12564756 -0.15279412 0.14844629 -0.41184896
-0.07076781 0.0021389183 0.369889 0.50404984 -1.1916096 1.6886247 -0.080045186 -1.8382355
-0.0075232154 -0.09929227 -1.2736187 -1.221237 1.040684 -1.0568246 -0.18864621 0.8549854
1.9793085 0.9563575 0.3468282 -0.4020366 -0.7320503 0.24508464 0.25241113 0.5175278
0.079281524 1.4098977 0.061954822 -0.7136484 -0.31518766 -0.7581562 0.06547777 0.041990113
-0.6431744 -1.3605138 0.2817641 0.13598564 1.453134 -0.9424818 0.71239257 -0.931691
0.5742992 0.2830498 -1.1742697 -1.0052422 0.67509294 -0.7622262 -0.29241845 -0.94410837
1.7504021 -0.11652692 0.004554995 -0.7903085 -0.2040641 -1.1746888 0.7952013 -0.65427524
0.8109075 -1.0668314 0.2549169 0.52682644 -0.21842062 0.35415825 1.1555024 -1.0610932
-0.9422977 1.2905709 -0.56694424 -1.6128118 -1.3091414 0.5726034 -1.0694916 0.18662529
0.675487 -0.28896806 0.6373323 1.6117182 -0.69697577 -1.4691551 1.3086478 0.43283448
-0.38662958 -1.9826596 0.6036528 -0.42644355 -0.2108953 -0.9491408 0.24792838 0.32868347
0.6438927 1.4723753 0.37551847 0.8250316 -0.009119214 -1.2616049 -0.8089027 -0.183348
0.44353127 0.21131608 -1.4382808 -0.27440473 1.7663697 0.97758436 0.4949449 0.10582596
0.14166176 -1.8148216 0.38397357 0.85754615 -1.5254143 0.36703035 -1.2965752 -1.510027
0.16392426 0.45739773 1.1587005 0.24779099 1.6204065 -0.2217966 0.7241697 1.547349
-0.32648614 -0.36306223 0.15767239 0.26328534 1.037513 1.6078591 1.7288951 3.4608216
0.95425105 -1.4079779 -0.41775137 -0.76076746 1.0784235 0.8925825 -2.4445038 -0.06779862
0.17452101 -0.49327096 -0.004173602 1.7454761 -1.8111745 1.4129931 0.024541058 1.1774001
-0.9124311 -1.8222839 1.2610806 -1.1477711 0.4303221 0.03769155 -0.88267773 0.20664378
0.67847925 1.0506009 -0.49090427 -0.13403523 0.7720088 -0.25476864 -0.49411142 -1.1161381
-1.4280971 -0.43305582 0.34835786 -0.21445972 -1.6463685 0.44620657 0.5897325 -0.6184292
0.3879974 0.050253294 0.20326973 0.2760948 0.42651874 1.1326094 0.041673996 1.1389185
-0.04644953 -0.90546185 0.084208235 -0.39933237 -0.44243288 -2.0671718 -0.13494371 -1.0941389
-0.31806615 0.12170232 -0.38958988 -0.64928347 0.5859384 -0.690724 0.7986866 1.1483943
-0.114822686 -0.19541544 -0.27462474 0.5596726 -0.39141822 -1.1751451 1.1761065 0.33123207
-0.22005548 0.77650094 0.48229128 -1.2610347 1.0806553 -0.46020797 0.3473527 -0.71109277
0.6698793 1.3178848 0.76471543 0.49494484 -0.67820245 1.7261312 0.020679312 1.9726713
00000000: f71c 463f 41b9 0340 fa6e a63e 1aa8 b2be
00000010: 8b16 8ebf 99b8 c93e 0141 a4bf f12c bf3f
00000020: db19 a4bc 086f 6a3f ab1a 1c40 d016 c13e
00000030: 482b a7bf 5801 7c3f 9f6a c1bf 3179 a6bf
00000040: efb5 0dbf 6eda 93be b534 d8be 1d4a 943f
00000050: 9ae8 1e3f 9060 f93d 5d7c aa3e f0ba b9bf
00000060: a4d4 813f b06c 003f dd2a 4c3e c6fd b4bf
00000070: ae1c 6638 93ad 0ac0 38d1 873f 93ec 4a3e
00000080: 90b1 a7bd 7a7f 8bbe 35b8 96be 8733 c5bf
00000090: c1a9 003e 1076 1cbe 4e02 183e dedd d2be
000000a0: b7ee 90bd 182d 0c3b 1762 bd3e 6909 013f
000000b0: aa86 98bf db24 d83f bbee a3bd 4d4b ebbf
000000c0: 4e85 f6bb bf59 cbbd f005 a3bf 7e51 9cbf
000000d0: 2235 853f 0746 87bf 792c 41be 53e0 5a3f
000000e0: fb59 fd3f d8d3 743f 7793 b13e bed7 cdbe
000000f0: a667 3bbf 78f7 7a3e 083c 813e b47c 043f
00000100: 5a5e a23d 8777 b43f 57c4 7d3d a9b1 36bf
00000110: 4760 a1be 8616 42bf 3619 863d d3fd 2b3d
00000120: 14a7 24bf 5125 aebf 6243 903e d23f 0b3e
00000130: 4b00 ba3f 7d46 71bf 5c5f 363f 4d83 6ebf
00000140: 4605 133f e7eb 903e 784e 96bf c7ab 80bf
00000150: e4d2 2c3f 4221 43bf dfb7 95be 16b1 71bf
00000160: 2d0d e03f aaa5 eebd 1142 953b a851 4abf
00000170: 2ef6 50be 345c 96bf 5092 4b3f 957e 27bf
00000180: a297 4f3f ee8d 88bf 7884 823e 19de 063f
00000190: a8a9 5fbe 3b54 b53e 81e7 933f e7d1 87bf
000001a0: 6c3a 71bf 6d31 a53f 4223 11bf 9e70 cebf
000001b0: f291 a7bf 2396 123f 1ae5 88bf b31a 3f3e
000001c0: b7ec 2c3f 9ff3 93be 3628 233f c84c ce3f
000001d0: 016d 32bf 460d bcbf c581 a73f 7b9c dd3e
000001e0: 50f4 c5be cac7 fdbf fd88 1a3f cf56 dabe
000001f0: f0f4 57be e4fa 72bf f0e0 7d3e 3349 a83e
00000200: 27d6 243f cb76 bc3f f543 c03e 4535 533f
00000210: c168 15bc 457c a1bf 3f14 4fbf 94bf 3bbe
00000220: 8816 e33e 3e63 583e 9619 b8bf c77e 8cbe
00000230: 6718 e23f f842 7a3f 6b69 fd3e 48bb d83d
00000240: c80f 113e 134c e8bf 2f98 c43e 2588 5b3f
00000250: c740 c3bf 67eb bb3e 2df6 a5bf 9148 c1bf
00000260: c3db 273e 0930 ea3e 4c50 943f ecbc 7d3e
00000270: 7b69 cf3f a61e 63be 2f63 393f 880f c63f
00000280: 3129 a7be 4be3 b9be df74 213e 56cd 863e
00000290: 3acd 843f 54ce cd3f 6f4c dd3f 1a7e 5d40
000002a0: cc49 743f 9f38 b4bf 82e3 d5be a8c1 42bf
000002b0: c809 8a3f 4980 643f c072 1cc0 01da 8abd
000002c0: a3b5 323e 038e fcbe b6c2 88bb c36b df3f
000002d0: 91d4 e7bf f5dc b43f 540a c93c 0cb5 963f
000002e0: 1695 69bf 9940 e9bf 176b a13f 2aea 92bf
000002f0: 2e53 dc3e 7462 1a3d 2bf7 61bf 6d9a 533e
00000300: d1b0 2d3f 177a 863f ce57 fbbe 8840 09be
00000310: 5ea2 453f 0971 82be 2cfc fcbe 9ddd 8ebf
00000320: e3cb b6bf 7eb9 ddbe f65b b23e 549b 5bbe
00000330: 34bc d2bf 3075 e43e b6f8 163f 6051 1ebf
00000340: 98a7 c63e 66d6 4d3d f125 503e 4c5c 8d3e
00000350: aa60 da3e 58f9 903f 5ab2 2a3d 15c8 913f
00000360: dd41 3ebd 59cc 67bf 5e75 ac3d 4b75 ccbe
00000370: 9086 e2be 8b4c 04c0 af2e 0abe be0c 8cbf
00000380: 91d9 a2be 113f f93d 5378 c7be 7137 26bf
00000390: 0f00 163f 4ad3 30bf ba76 4c3f 96fe 923f
000003a0: 2828 ebbd fc1a 48be 9d9b 8cbe b446 0f3f
000003b0: f867 c8be 286b 96bf a88a 963f 4097 a93e
000003c0: 3956 61be c4c8 463f e2ee f63e 9669 a1bf
000003d0: ea52 8a3f 61a0 ebbe 37d8 b13e 2d0a 36bf
000003e0: 367d 2b3f 73b0 a83f 64c4 433f 6969 fd3e
000003f0: ad9e 2dbf def1 dc3f a967 a93c 7e80 fc3f

lora_unet_down_blocks_2.lora_down.weight f4 [4, 320]
-0.57378954 0.9506937 -1.5213643 -1.5570067 0.13900742 0.104633965 -0.0828938 -0.7643444
-1.0678906 -0.05478907 -0.707181 0.21078457 1.3608468 1.1710595 -0.78279376 -0.034976363
0.14811902 2.9929671 -1.7439524 -0.5031424 -0.27883142 0.4616908 -0.10706331 0.6493228
0.19347689 -0.80049413 -1.4587083 0.4477129 -1.5026889 0.19130263 -0.49055365 -1.3236808
-0.61158043 1.3481042 0.45303744 0.116622224 -0.93711245 -0.4594128 -1.2908045 -1.1141217
2.6993673 2.0257545 0.71877414 -0.11933041 0.16064024 -1.4715939 0.224431 -0.20476392
0.8790038 -0.47685993 -2.0149095 1.7127627 -0.5049321 -1.5015545 -1.2944453 0.6765882
-1.3907362 -0.6449225 -0.33114415 -0.7119127 -1.1649612 -0.94183785 -1.0032649 1.9351969
0.9524678 1.2173594 0.18620715 0.7645858 1.0064547 3.145491 -0.02414547 -1.226212
1.9094372 0.013249714 -0.8707089 -0.42049414 0.9239104 -0.68801296 0.7273075 -0.22111584
0.75607026 0.22928196 2.2085898 -0.17461652 0.014458843 0.8231047 0.44493917 -1.1108338
1.1935115 1.3047339 -2.3738883 -0.4927218 1.6882495 -0.11194188 0.8818796 1.5863343
-0.6419519 0.17773207 -0.9148707 -1.4232231 -1.1657165 0.35346028 -2.6599698 -1.3784809
1.4967214 0.25498614 1.1276975 -0.6566465 -0.29756021 1.9805737 0.42698276 1.120503
1.7660083 0.11426562 -1.0494419 0.99072593 0.6633519 0.4061518 0.92651945 1.4837273
1.1311518 1.1931878 0.37761158 -0.008229012 -1.4323282 -0.89018834 -1.9376005 0.8679744
-0.2906493 0.569585 -0.4481923 0.5081233 1.0041462 0.24558467 1.0256937 0.07185377
0.7703936 1.5056795 -0.09678634 0.6107096 0.08809511 0.23311688 -0.7767935 1.4914764
0.7404875 -0.50957775 -0.90011746 -2.3318949 -0.17150994 -0.21754672 -0.09068293 -0.58194846
-1.3117101 0.42202613 -0.3556474 0.3724094 1.1382655 -0.3502823 -0.2942286 -0.7035828
-1.1304896 -0.972218 0.10235825 -1.0988218 -0.36779258 -1.0817888 0.16503128 0.6440303
1.1234387 1.1945224 1.3635306 0.12543695 -2.8068538 -1.1598009 -0.87338424 0.8608993
0.6647724 -0.87442535 0.7049503 -0.23331487 1.1675848 0.28210223 1.671439 -2.7595518
-0.9175899 0.8664686 1.7703872 -1.1094584 0.94145495 1.1251519 -0.17711656 -0.013805669
0.7907767 -1.8757377 -0.62721 0.551856 -0.26557532 -0.022791972 0.25814506 -0.4769286
0.41746464 -1.8193427 0.4530773 -0.098037004 -1.0997622 1.3375916 -0.8677371 -0.042548914
-0.063407205 1.4920155 1.1189522 1.4864788 -0.017641734 -0.34159827 -0.83725077 -0.32196948
1.9719926 0.9421638 0.56603074 0.8554864 -1.8135431 -0.94331044 -0.6526749 2.7313108
-0.65781164 1.0013177 -1.4923347 0.63017344 0.9957385 -0.4011785 0.6748498 1.3591394
1.2291789 0.36290202 0.00071182597 1.7186922 -0.28507143 0.32932192 0.6131843 0.056726135
0.13500735 -0.26196107 1.2949429 0.0801065 -0.49063772 -2.0136685 -1.4920292 0.15528156
-1.0887271 0.8339283 1.2991486 0.7753024 -0.16854708 -0.18941703 1.041479 -1.2944281
00000000: dfe3 12bf aa60 733f 11bc c2bf ff4b c7bf
00000010: f657 0e3e 554a d63d 3ac4 a9bd 13ac 43bf
00000020: a4b0 88bf 816a 60bd d009 35bf e9d7 573e
00000030: 3a30 ae3f 47e5 953f 2c65 48bf 6043 0fbd
00000040: 83ac 173e c68c 3f40 d539 dfbf f1cd 00bf
00000050: fec2 8ebe bd62 ec3e 0244 dbbd 053a 263f
00000060: ce1e 463e 2fed 4cbf f4b6 babf a03a e53e
00000070: 1c58 c0bf d6e4 433e d929 fbbe 5f6e a9bf
00000080: 8990 1cbf ae8e ac3f 86f4 e73e a2d7 ee3d
00000090: 9ae6 6fbf 2838 ebbe 1539 a5bf 8a9b 8ebf
000000a0: 6fc2 2c40 f6a5 0140 9501 383f 8163 f4bd
000000b0: e07e 243e 305d bcbf 3dd1 653e a2ad 51be
000000c0: 6506 613f fc26 f4be 47f4 00c0 cf3b db3f
000000d0: 3b43 01bf f032 c0bf 62b0 a5bf e234 2d3f
000000e0: a503 b2bf a419 25bf ba8b a9be e93f 36bf
000000f0: 731d 95bf 491c 71bf fc6a 80bf 88b4 f73f
00000100: eed4 733f 6fd2 9b3f 16ad 3e3e e5bb 433f
00000110: 82d3 803f b94f 4940 b8cc c5bc 84f4 9cbf
00000120: 7068 f43f 5415 593c c7e6 5ebf 024b d7be
00000130: 6485 6c3f 9e21 30bf d330 3a3f 316c 62be
00000140: d28d 413f e4c8 6a3e 8959 0d40 acce 32be
00000150: c8e4 6c3c fdb6 523f 11cf e33e cd2f 8ebf
00000160: fcc4 983f 8501 a73f c9ed 17c0 0846 fcbe
00000170: 8f18 d83f c941 e5bd ddc2 613f 010d cb3f
00000180: f656 24bf 65ff 353e f734 6abf 2d2c b6bf
00000190: 3336 95bf bff8 b43e f23c 2ac0 1072 b0bf
000001a0: 9194 bf3f 8b8d 823e 6458 903f fc19 28bf
000001b0: d059 98be 7083 fd3f 7c9d da3e a46c 8f3f
000001c0: 8f0c e23f 1804 ea3d 1d54 86bf 37a0 7d3f
000001d0: 6ed1 293f 21f3 cf3e 6130 6d3f c7ea bd3f
000001e0: 95c9 903f 61ba 983f 4e56 c13e fad2 06bc
000001f0: 8856 b7bf 62e3 63bf 4b03 f8bf 9233 5e3f
00000200: fccf 94be 53d0 113f 7679 e5be 5e14 023f
00000210: dd87 803f 8c7a 7b3e ee49 833f 1228 933d
00000220: 8438 453f 1bba c03f eb37 c6bd 7757 1c3f
00000230: 366b b43d 31b6 6e3e f0db 46bf b3e8 be3f
00000240: 9790 3d3f b073 02bf 196e 66bf c43d 15c0
00000250: 4da0 2fbe 91c4 5ebe f9b7 b9bd 93fa 14bf
00000260: 1ee6 a7bf cf13 d83e 6a17 b6be 72ac be3e
00000270: afb2 913f 3458 b3be 22a5 96be 011e 34bf
00000280: e2b3 90bf 47e3 78bf 34a1 d13d 31a6 8cbf
00000290: 4f4f bcbe 0e78 8abf f6fd 283e 2bdf 243f
000002a0: d7cc 8f3f 1ce6 983f 2c88 ae3f 8b72 003e
000002b0: 7ea3 33c0 5b74 94bf 1c96 5fbf e663 5c3f
000002c0: 862e 2a3f 57da 5fbf 9f77 343f 18ea 6ebe
000002d0: 6b73 953f b46f 903e b7f1 d53f 7f9c 30c0
000002e0: 2ce7 6abf e3d0 5d3f 0c9c e23f bc02 8ebf
000002f0: 3103 713f fa04 903f 0b5e 35be 2c31 62bc
00000300: 5870 4a3f 2c18 f0bf d690 20bf 6f46 0d3f
00000310: 7df9 87be 3bb6 babc 972b 843e fc2f f4be
00000320: edbd d53e 39e0 e8bf bff9 e73e a0c7 c8bd
00000330: 02c5 8cbf 3436 ab3f 0524 5ebf c547 2ebd
00000340: a3db 81bd 5dfa be3f d339 8f3f f044 be3f
00000350: 6685 90bc f8e5 aebe 1156 56bf 2fd9 a4be
00000360: 416a fc3f a631 713f 64e7 103f 2801 5b3f
00000370: 2e22 e8bf cb7c 71bf b415 27bf cccd 2e40
00000380: 5866 28bf 2e2b 803f d304 bfbf 0c53 213f
00000390: b8e8 7e3f 4567 cdbe f5c2 2c3f 48f8 ad3f
000003a0: bc55 9d3f 4bce b93e d599 3a3a 1bfe db3f
000003b0: e2f4 91be e29c a83e a5f9 1c3f aa59 683d
000003c0: 5e3f 0a3e c31f 86be b0c0 a53f e00e a43d
000003d0: de34 fbbe f2df 00c0 d0fa bebf 2102 1f3e
000003e0: 695b 8bbf 537c 553f 804a a63f 387a 463f
000003f0: 9b97 2cbe 8af6 41be 2f4f 853f d2af a5bf

lora_unet_down_blocks_2.lora_up.weight f4 [320, 4]
0.4772651 -0.39531878 -1.6734763 0.015566514 -0.5731352 -1.145465 -0.35669705 0.63837916
-2.3596945 2.6136844 0.4436267 -0.008940484 0.67595935 1.4648573 -0.99767834 -1.2250677
-0.42081988 -0.8619921 -0.47220325 -1.0158161 -0.70330185 -0.9754094 0.109712675 -0.13775578
0.9599152 2.3281486 -1.0421507 1.4357554 1.100781 1.3248618 -0.7601287 0.7636048
0.44911116 -0.75768155 0.52137935 0.67150754 0.32470256 0.16375715 -0.5340961 -1.6897206
-2.4646027 0.92062974 -0.48334184 0.10750605 0.23713371 2.1976876 -0.49847504 1.9369023
0.58364284 0.020767095 -0.07354464 0.06453135 0.5109348 0.9561815 -1.1730587 -1.1028355
-0.028617274 0.44972944 0.888561 0.6891719 1.9566154 -0.15961982 0.3483515 -0.88700646
-0.3466421 0.52622503 2.0696714 -0.9088874 -1.1734002 0.02452254 -1.4730935 0.72296834
0.15492101 1.0667422 -0.5483735 1.2416595 1.167296 0.688851 0.890094 1.2839496
0.6223951 0.4768067 -0.082493775 1.4391222 0.15443428 -1.2197367 -0.49322498 1.002598
1.2231634 -0.60155374 1.6518537 -0.0141261825 0.35997975 -0.8377097 -0.87029696 -1.3172461
-1.2244478 -0.9882281 -0.91220725 0.74695814 -0.042986233 0.5362331 0.5041755 -1.7360543
2.2181356 -1.7561514 -1.4709424 -0.11168894 -1.9732575 0.2906837 -0.7291373 -0.13276564
0.55126 0.3303105 -1.7601047 0.7743466 0.6964123 -0.3099758 -0.45558655 -0.5896043
-0.21286035 0.52173924 -1.6859032 -0.025403261 -1.1586097 -0.47056898 1.890105 -0.13864659
0.24342099 1.7207557 -0.37336978 -0.028653258 -0.29190078 -1.9034389 0.36719882 0.9626599
-2.0032663 0.50463814 -0.6993999 1.039615 -0.22162774 0.89502823 -1.0452254 -0.296876
-0.39192626 0.1970221 1.3601428 -2.2480412 -0.49717954 0.22154684 0.2206182 -0.010414757
1.0020384 -0.7676464 -0.69519293 1.2886217 1.1903569 -0.03658707 -0.7242428 -0.57917595
0.7968538 -0.87445235 -0.21124756 -1.1210208 -1.4874127 -0.5249979 1.3497516 -0.12162135
-1.4229923 -1.2941475 0.53489834 -0.6674684 0.7909938 0.8062879 -0.5976217 1.2542311
-0.56787145 -0.91375273 -0.47301254 -0.70449054 -1.2257701 -1.056567 1.144142 -0.44332922
-1.9037881 0.026383247 0.4590461 1.282361 -0.70037985 -0.6867952 -2.2235572 0.8241039
-0.0119173 -0.29042825 -0.61544687 0.122018136 -0.473449 0.11283506 0.52930504 -1.8614422
-0.5826144 -0.7206416 0.7959694 0.13756277 -0.053452294 -1.0002722 -0.5400097 -0.7338278
1.3531184 0.6604348 0.06851056 -0.9879379 -0.2469031 1.6636931 -0.58910465 0.56234646
1.3178163 0.20055814 -2.2984827 -0.5579137 -1.3380487 1.3087333 -1.8269303 -0.015776485
-0.19596128 0.40757486 1.2257068 1.5685028 -0.6379326 0.94205195 0.1999307 0.95842254
-1.2380375 -0.9168797 -1.0871917 0.28981027 -0.054429468 0.7424347 1.8980527 0.123250455
1.5671201 0.94316214 -0.22279356 -0.15482286 -0.7265313 0.32175443 0.06260957 1.0904776
-0.86729354 0.38762456 0.5124864 -1.5071934 -0.12955289 1.0705193 -1.1019689 0.18768194
00000000: 175c f43e 3967 cabe 7934 d6bf b10a 7f3c
00000010: fdb8 12bf 999e 92bf ffa0 b6be d16c 233f
00000020: 3c05 17c0 9b46 2740 0a23 e33e 1c7b 12bc
00000030: ac0b 2d3f 7280 bb3f d967 7fbf 05cf 9cbf
00000040: b475 d7be 84ab 5cbf a0c4 f1be 4306 82bf
00000050: 970b 34bf 6eb4 79bf 0ab1 e03d da0f 0dbe
00000060: 01bd 753f 6300 1540 3265 85bf d5c6 b73f
00000070: 64e6 8c3f 1295 a93f cb97 42bf 9b7b 433f
00000080: e6f1 e53e 6bf7 41bf 1e79 053f ebe7 2b3f
00000090: 6a3f a63e f4af 273e 86ba 08bf c448 d8bf
000000a0: 0dbc 1dc0 64ae 6b3f 9578 f7be 222c dc3d
000000b0: 2ed3 723e eaa6 0c40 1f38 ffbe 6aec f73f
000000c0: 9e69 153f c11f aa3c 929e 96bd 0329 843d
000000d0: a0cc 023f 50c8 743f ca26 96bf b729 8dbf
000000e0: c66e eabc f042 e63e bc78 633f 926d 303f
000000f0: 6072 fa3f 6173 23be 215b b23e db12 63bf
00000100: 137b b1be afb6 063f 7f75 0440 d8ac 68bf
00000110: fa31 96bf 7ee3 c83c 548e bcbf 7414 393f
00000120: 9da3 1e3e 028b 883f 3562 0cbf b3ee 9e3f
00000130: f569 953f 8a58 303f 33dd 633f 7658 a43f
00000140: 4955 1f3f 0220 f43e 7ff2 a8bd 2835 b83f
00000150: 0524 1e3e 5520 9cbf fc87 fcbe 2255 803f
00000160: 9e90 9c3f 6dff 19bf f16f d33f 8171 67bc
00000170: 444f b83e 2574 56bf c8cb 5ebf 859b a8bf
00000180: b5ba 9cbf 84fc 7cbf 6a86 69bf a638 3f3f
00000190: 5512 30bd 9346 093f a511 013f 0737 debf
000001a0: eff5 0d40 92c9 e0bf d747 bcbf 2cbd e4bd
000001b0: b493 fcbf 7ed4 943e bea8 3abf b7f3 07be
000001c0: 601f 0d3f 751e a93e 1c4b e1bf 943b 463f
000001d0: 1448 323f 26b5 9ebe a442 e9be 4ff0 16bf
000001e0: 10f8 59be b490 053f adcb d7bf 801a d0bc
000001f0: 534d 94bf 6bee f0be f6ee f13f 5ff9 0dbe
00000200: 5a43 793e b941 dc3f 532a bfbe 3dba eabc
00000210: 0574 95be e3a3 f3bf 7c01 bc3e e170 763f
00000220: 8435 00c0 f72f 013f df0b 33bf 1b12 853f
00000230: 62f2 62be 9220 653f f2c9 85bf 2200 98be
00000240: 8faa c8be 29c0 493e 2919 ae3f e8df 0fc0
00000250: 518e febe 2ddd 623e bde9 613e a8a2 2abc
00000260: cb42 803f 7984 44bf 2af8 31bf 8ef1 a43f
00000270: 9d5d 983f 53dc 15bd fa67 39bf e044 14bf
00000280: 9cfe 4b3f 1cdc 5fbf 4851 58be 9c7d 8fbf
00000290: 8a63 bebf 4366 06bf a9c4 ac3f 9d14 f9bd
000002a0: 9d24 b6bf a0a6 a5bf 19ef 083f 36df 2abf
000002b0: 927e 4a3f e268 4e3f bcfd 18bf a58a a03f
000002c0: 0660 11bf b3eb 69bf b32e f2be 7e59 34bf
000002d0: 09e6 9cbf 963d 87bf 3f73 923f 0cfc e2be
000002e0: 54af f3bf ae21 d83c 1708 eb3e 6824 a43f
000002f0: 184c 33bf cfd1 2fbf c34e 0ec0 79f8 523f
00000300: c740 43bc 03b3 94be ed8d 1dbf a5e4 f93d
00000310: e867 f2be 1116 e73d 8980 073f bd43 eebf
00000320: 3826 15bf f87b 38bf a7c4 4b3f 41dd 0c3e
00000330: cbf0 5abd eb08 80bf 133e 0abf 24dc 3bbf
00000340: fc32 ad3f 4112 293f 444f 8c3d 80e9 7cbf
00000350: 2bd4 7cbe e5f3 d43f 90cf 16bf f0f5 0f3f
00000360: 34ae a83f 1d5f 4d3e 571a 13c0 6fd3 0ebf
00000370: 2e45 abbf 9384 a73f dad8 e9bf b03d 81bc
00000380: 13aa 48be a7ad d03e f6e3 9c3f b3c4 c83f
00000390: 8d4f 23bf 512a 713f a2ba 4c3e 2e5b 753f
000003a0: 0378 9ebf a1b8 6abf 1929 8bbf 0362 943e
000003b0: 6ff1 5ebd 3310 3e3f 64f3 f23f bc6a fc3d
000003c0: 6497 c83f 1373 713f ff23 64be e289 1ebe
000003d0: f5fd 39bf ffbc a43e 7239 803d c594 8b3f
000003e0: f306 5ebf ba76 c63e 4f32 033f b7eb c0bf
000003f0: 83a9 04be c706 893f 510d 8dbf b22f 403e

lora_unet_down_blocks_3.lora_down.weight f4 [4, 320]
0.75371635 -1.319379 -1.2113587 0.7584642 1.0226711 0.7447884 0.6598448 0.3306252
0.034110717 -0.686764 -0.90430534 -0.75798213 0.22579704 1.0147233 -1.5306543 0.7711754
1.2052964 -0.9631603 -0.9373076 -1.0965366 1.2127515 0.12683146 0.8631596 0.39702183
-0.039232645 0.037455767 0.6311062 -1.1629447 0.16527115 -1.0747497 -0.530189 0.17884585
-0.49143592 -1.148557 0.37804082 -0.3830843 -0.6344443 1.0461128 -0.49213472 0.029339625
0.009577969 0.10473469 -0.36481398 -0.20724812 0.9982482 0.47451872 -0.81084806 -0.5674571
0.26004252 1.9887311 0.18398711 0.29354003 -0.64703923 -0.3297451 0.9377024 -2.574522
1.1995152 -2.0786905 -1.9897645 0.8665451 -0.52763605 0.7861165 -1.2764789 -0.57784265
3.0822492 -0.97439194 -0.6687024 0.68705565 -1.4203581 -1.426197 0.91712373 2.063767
-0.9476298 0.114961736 -0.9625478 -0.87876123 0.03180312 -0.52555275 1.5341183 -0.5439392
2.112733 0.19365455 -1.6573367 -0.05682088 1.7949202 0.0785933 -0.38792923 0.20937566
-0.10251339 -0.57267284 -0.68155193 0.41565025 -0.44506353 -0.4643337 1.1791971 1.3772804
0.8088353 -0.27111253 1.143724 -1.6140144 -0.41452938 -3.182474 -0.12545998 -0.19168639
0.6308022 -0.3731957 -1.1244721 0.8864285 -0.63443565 -0.43303546 -1.310228 -0.1590829
-0.32021135 -1.6715704 0.84920096 -0.0726899 1.112744 1.2028937 1.0711997 0.71305907
0.48244298 -0.7625676 -0.20493744 1.9291308 -0.7344169 0.082703814 -1.1220958 0.59283936
1.6759492 0.41222125 -0.10887669 -0.351855 1.9124562 -0.20208682 -1.5123396 -0.0011646646
0.084383436 2.5042837 -0.63269687 0.831471 -1.2671845 0.07914723 -1.3578779 0.7198381
0.41194165 -0.99486256 0.79223835 0.264292 -0.9788282 -0.68852895 -1.2849375 -0.5118585
1.6439757 0.3984674 1.0479195 1.0733498 0.8128748 0.022059005 -0.3167255 0.33921465
-0.12714723 0.7042384 0.41339716 -0.1733723 -0.01859234 -1.2689203 1.149403 0.43687063
-1.3405396 1.6625942 0.1027168 -0.103265285 0.6167482 1.4675337 -0.51177186 0.25885832
-1.3563716 -1.1529404 0.95112157 -0.37593907 -0.114862286 -0.43558973 -0.6804022 -0.025180643
0.40363383 0.13432369 -0.5886105 -0.7957539 0.35563698 1.4294883 1.5397915 -0.31142443
0.9766096 1.5094612 0.69781005 -0.06808777 -0.9045339 -0.31733656 0.5628544 1.012117
-1.3883396 1.2427223 0.18914178 -0.4798742 -0.39198712 0.83978003 -0.2326245 -1.9552214
-0.0871843 -0.70851725 0.8783309 -1.0769374 -1.1520249 -0.840732 0.74265146 0.436734
-0.2403343 0.009542844 1.0133641 0.44148606 0.5907671 1.2889462 0.23354995 0.070887044
0.16807088 -1.3875126 1.4902241 1.5794994 -1.7249013 1.7591914 -0.1145475 1.072949
0.15382232 0.5195869 -0.13070753 0.18393457 0.6409896 -0.96587217 0.318713 1.1838143
-0.95507604 -0.600616 -1.1441847 0.05173087 -0.41843182 1.931698 0.8814106 -0.63207024
-2.102284 0.343307 -0.7449956 -0.6323878 1.4690973 -1.1111588 0.39046037 1.3815739
00000000: 8ef3 403f 69e1 a8bf cd0d 9bbf b62a 423f
00000010: e3e6 823f 74aa 3e3f 97eb 283f b547 a93e
00000020: aeb7 0b3d c4cf 2fbf 8e80 67bf 1e0b 42bf
00000030: 5737 673e 74e2 813f 7bec c3bf c06b 453f
00000040: 2747 9a3f ac91 76bf 64f3 6fbf 505b 8cbf
00000050: 713b 9b3f 1be0 013e 07f8 5c3f 7246 cb3e
00000060: 69b2 20bd 386b 193d 2d90 213f 5fdb 94bf
00000070: d73c 293e 6691 89bf 77ba 07bf 5e23 373e
00000080: 7d9d fbbe ea03 93bf 918e c13e a023 c4be
00000090: f16a 22bf 06e7 853f 15f9 fbbe a759 f03c
000000a0: eaec 1c3c 247f d63d e6c8 babe da38 54be
000000b0: 328d 7f3f 1ef4 f23e bd93 4fbf de44 11bf
000000c0: 4b24 853e be8e fe3f 1e67 3c3e e14a 963e
000000d0: 5da4 25bf 5ad4 a8be 440d 703f f8c4 24c0
000000e0: b789 993f 4409 05c0 9ab0 febf e6d5 5d3f
000000f0: 2813 07bf ee3e 493f a963 a3bf 7fed 13bf
00000100: 9243 4540 c071 79bf 1530 2bbf e1e2 2f3f
00000110: 4bce b5bf a08d b6bf 9fc8 6a3f c214 0440
00000120: de97 72bf 0f71 eb3d 8869 76bf 7ff6 60bf
00000130: fd43 023d a08a 06bf fd5d c43f 993f 0bbf
00000140: 0437 0740 614d 463e 9c23 d4bf 03bd 68bd
00000150: f2bf e53f 86f5 a03d a99e c6be 9366 563e
00000160: 8af2 d1bd b09a 12bf 307a 2ebf 1cd0 d43e
00000170: 5edf e3be 26bd edbe eeef 963f b94a b03f
00000180: d50f 4f3f 43cf 8abe 8c65 923f 0698 cebf
00000190: 323d d4be a7ad 4bc0 9578 00be 7049 44be
000001a0: 417c 213f 8213 bfbe b4ee 8fbf faec 623f
000001b0: 606a 22bf d3b6 ddbe 8db5 a7bf a1e6 22be
000001c0: bef2 a3be 05f6 d5bf 3c65 593f 71de 94bd
000001d0: 656e 8e3f 6cf8 993f 121d 893f 0a8b 363f
000001e0: c402 f73e a137 43bf 1fdb 51be c2ed f63f
000001f0: bf02 3cbf 9e60 a93d d6a0 8fbf 52c4 173f
00000200: 8185 d63f aa0e d33e befa debd 5726 b4be
00000210: 5dcb f43f d9ef 4ebe 5894 c1bf a9a7 98ba
00000220: 39d1 ac3d 2f46 2040 6cf8 21bf 49db 543f
00000230: 1a33 a2bf f117 a23d f1ce adbf 4f47 383f
00000240: 04ea d23e 50af 7ebf 22d0 4a3f 4851 873e
00000250: 7c94 7abf 6f43 30bf d578 a4bf 2909 03bf
00000260: cc6d d23f eb03 cc3e 3a22 863f 8763 893f
00000270: 9018 503f 16b5 b43c d829 a2be 8bad ad3e
00000280: e232 02be f848 343f cba8 d33e 8288 31be
00000290: f74e 98bc fb6b a2bf a31f 933f 82ad df3e
000002a0: cd96 abbf e3cf d43f 305d d23d c07c d3bd
000002b0: 36e3 1d3f 25d8 bb3f 7b03 03bf 1489 843e
000002c0: 969d adbf 8d93 93bf b47c 733f 167b c0be
000002d0: eb3c ebbd 9e05 dfbe d72e 2ebf a347 cebc
000002e0: 18a9 ce3e 268c 093e 2daf 16bf 87b6 4bbf
000002f0: 0d16 b63e 79f9 b63f e317 c53f 0673 9fbe
00000300: 1603 7a3f 0636 c13f aea3 323f 9a71 8bbd
00000310: 898f 67bf f079 a2be 3a17 103f 0d8d 813f
00000320: 1db5 b1bf 8611 9f3f 62ae 413e 12b2 f5be
00000330: 89b2 c8be d3fb 563f 1e35 6ebe b244 fabf
00000340: af8d b2bd 6361 35bf 4bda 603f 16d9 89bf
00000350: 8d75 93bf 363a 57bf 681e 3e3f 999b df3e
00000360: 321a 76be 9759 1c3c eab5 813f 760a e23e
00000370: 833c 173f 30fc a43f b827 6f3e 3a2d 913d
00000380: c61a 2c3e 039a b1bf aabf be3f 092d ca3f
00000390: 91c9 dcbf 2f2d e13f e197 eabd 6556 893f
000003a0: 9983 1d3e a603 053f 32d8 05be 5859 3c3e
000003b0: e517 243f 6643 77bf 5a2e a33e 3a87 973f
000003c0: dd7f 74bf f8c1 19bf a574 92bf c0e3 533d
000003d0: b23c d6be e141 f73f 20a4 613f 5bcf 21bf
000003e0: d28b 06c0 efc5 af3e 08b8 3ebf 2be4 21bf
000003f0: 610b bc3f 743a 8ebf 6cea c73e 6ad7 b03f

lora_unet_down_blocks_3.lora_up.weight f4 [320, 4]
-0.96529365 -1.2359174 1.7184664 -1.9451457 0.34093627 -0.75396305 -1.6868645 1.2826997
-2.0616803 -0.6650034 -0.078098245 1.684818 -0.70222443 0.2443526 0.40126458 -0.15597308
0.49976936 0.3063855 1.4497262 0.35780978 -0.42215693 0.1891414 0.9113344 2.3747344
-0.8533936 0.9832112 0.47114074 0.27383062 -0.15607657 -0.8571444 0.08810062 1.6806698
-0.0699683 0.07784173 1.4961638 0.8523323 -0.9346061 1.5838885 -1.5828164 -0.58904463
0.0977477 0.15721396 -1.5191742 0.18273461 -0.20581251 0.2902957 1.3470182 0.16776605
-0.29788566 0.7385738 -1.2999694 -0.07185605 0.4066183 0.93433064 -2.9736176 -0.77185833
0.8072907 -0.5464254 0.07586603 -0.3962056 -1.3650523 -0.6343273 0.31307536 2.8796206
-0.56081104 -0.019198794 -0.8035218 1.3883941 -0.17286323 0.6339047 -0.41542542 -1.379509
-0.035391632 -1.0410988 -0.41257837 1.7177111 0.8683858 -0.945555 0.49113828 -0.48227915
0.9359791 -1.748019 1.3586313 0.724849 -0.6340117 -0.6280642 -0.6565053 -1.6543581
-0.87853336 1.5261954 -1.5193936 -0.097556 0.74472505 1.0312994 -0.7736869 -0.66364366
-0.62497544 -1.1851424 -1.0685067 0.5098574 0.31661457 -2.441833 -1.3841146 1.3148396
0.76419353 -0.30411056 1.0189117 -0.30931213 -0.9478047 -0.2400549 0.8294337 0.42807662
3.2485204 -1.6047796 0.63254243 1.1308672 -1.627879 0.38316348 0.44019878 0.22939563
-1.2623901 1.0684384 0.17929128 0.31162027 -0.12188385 -1.2674212 -0.57903934 -0.55520433
0.0044214586 -1.1185787 -1.1675997 0.18372245 -1.3146411 -0.195264 1.059786 -0.42326167
0.4821264 -0.058392808 -0.08507144 -1.023872 -0.32062733 -0.5911304 0.1045305 0.9263778
1.6685568 -0.07855336 -0.22094639 1.0911245 -1.5627086 0.400812 -0.045113772 -0.7326288
0.26300758 0.8036123 0.57064235 0.82447886 -0.9657082 -0.57983893 -0.7650045 -0.8678761
-0.25634605 0.26811382 0.8185132 -2.494948 -1.669988 -1.7080666 2.2139292 0.08740801
-0.9611097 -1.0162251 -0.07185628 2.0282798 1.6458292 0.7475338 -0.22480044 -0.4247005
1.0413016 0.84133303 2.714245 0.5090654 -1.1434611 -1.6715864 1.0945612 -1.7288162
-0.7851754 0.41747087 1.7816302 0.4679064 -0.5116464 1.6811248 1.3186426 0.9760492
0.15438099 0.048932236 0.1700868 0.16541137 1.5162079 -0.1645488 -1.0237826 0.087072045
-0.49657515 -0.30621505 0.1887043 0.071320854 0.2035673 -0.43802574 -0.043985806 -0.17411576
-3.1485581 -1.010261 -0.4879759 -1.3432711 0.4302814 -0.37881017 -1.1216912 -1.803578
0.025790485 2.7231064 -1.4301364 0.81363 0.44398904 -0.32464263 1.9896808 -0.3894665
0.5732846 0.37648663 -1.7137929 -0.07896841 -0.9073855 -0.7350891 -0.42922288 0.7053757
1.2778871 -0.27583966 -1.2061443 1.1567736 0.5698557 0.29424593 0.3350534 2.2721891
0.85143363 1.0645914 0.50825554 -0.6127365 0.70522594 0.6173388 -0.5308811 -0.96047336
0.7017626 -0.18024984 -0.35277 0.1129703 -1.3393853 -0.49285433 1.2953242 -0.60468477
00000000: 7c1d 77bf 8b32 9ebf b5f6 db3f 89fa f8bf
00000010: 338f ae3e b903 41bf 2deb d7bf 812f a43f
00000020: 92f2 03c0 aa3d 2abf f9f1 9fbd 1ea8 d73f
00000030: fbc4 33bf 9137 7a3e 8d72 cd3e 68b7 1fbe
00000040: c5e1 ff3e 8fde 9c3e a190 b93f d832 b73e
00000050: f424 d8be 48ae 413e 364d 693f a6fb 1740
00000060: 0178 5abf bbb3 7b3f 5c39 f13e 8733 8c3e
00000070: 89d2 1fbe d16d 5bbf 196e b43d 3020 d73f
00000080: 8a4b 8fbd 7c6b 9f3d 4c82 bf3f 7332 5a3f
00000090: 5842 6fbf dcbc ca3f ba99 cabf a1cb 16bf
000000a0: f22f c83d b2fc 203e 4d74 c2bf c81e 3b3e
000000b0: 84c0 52be a3a1 943e 186b ac3f ddca 2b3e
000000c0: 7884 98be 2c13 3d3f 6665 a6bf 4429 93bd
000000d0: 4630 d03e 4b30 6f3f c04f 3ec0 8298 45bf
000000e0: 9aaa 4e3f 89e2 0bbf a65f 9b3d 76db cabe
000000f0: 09ba aebf 4663 22bf 6a4b a03e b44b 3840
00000100: 5091 0fbf ca46 9dbc 9bb3 4dbf e6b6 b13f
00000110: 0f03 31be 9447 223f a4b2 d4be c093 b0bf
00000120: d1f6 10bd ba42 85bf 793d d3be f5dd db3f
00000130: 884e 5e3f e40f 72bf 7a76 fb3e 4bed f6be
00000140: 549c 6f3f 16bf dfbf a1e7 ad3f b48f 393f
00000150: 974e 22bf d1c8 20bf bb10 28bf 02c2 d3bf
00000160: 90e7 60bf 5f5a c33f 7d7b c2bf 71cb c7bd
00000170: 4da6 3e3f 9e01 843f 5810 46bf 8de4 29bf
00000180: 64fe 1fbf bfb2 97bf d4c4 88bf 0486 023f
00000190: 4e1b a23e fe46 1cc0 ab2a b1bf aa4c a83f
000001a0: 30a2 433f 61b4 9bbe b36b 823f 295e 9ebe
000001b0: 54a3 72bf f4d0 75be c455 543f dc2c db3e
000001c0: c2e7 4f40 6b69 cdbf 4dee 213f 42c0 903f
000001d0: 575e d0bf 012e c43e bc61 e13e b0e6 6a3e
000001e0: 0096 a1bf 97c2 883f 2298 373e b18c 9f3e
000001f0: 3d9e f9bd dc3a a2bf ec3b 14bf df21 0ebf
00000200: e2e1 903b 962d 8fbf e873 95bf bd21 3c3e
00000210: 2946 a8bf 49f3 47be 11a7 873f c1b5 d8be
00000220: 46d9 f63e 4c2d 6fbd ef39 aebd 3d0e 83bf
00000230: 4429 a4be 5254 17bf 1614 d63d 1827 6d3f
00000240: 4593 d53f 96e0 a0bd c53f 62be f8a9 8b3f
00000250: d606 c8bf 3b37 cd3e 38c9 38bd 908d 3bbf
00000260: eea8 863e 89b9 4d3f 9e15 123f 0c11 533f
00000270: a738 77bf 5370 14bf 56d7 43bf 212d 5ebf
00000280: ca3f 83be 3746 893e 158a 513f 3aad 1fc0
00000290: 2bc2 d5bf eda1 dabf 04b1 0d40 f902 b33d
000002a0: 490b 76bf aa13 82bf 6329 93bd 56cf 0140
000002b0: 88aa d23f 605e 3f3f 1632 66be 5872 d9be
000002c0: 5f49 853f 9a61 573f 31b6 2d40 1c52 023f
000002d0: ef5c 92bf 8bf6 d5bf 951a 8c3f d949 ddbf
000002e0: 4101 49bf bebe d53e 750c e43f 6d91 ef3e
000002f0: 42fb 02bf 192f d73f 48c9 a83f 5cde 793f
00000300: 0d16 1e3e 2b6d 483d 3c2b 2e3e 9961 293e
00000310: 1a13 c23f 7b7f 28be 4f0b 83bf d452 b23d
00000320: 193f febe 38c8 9cbe b33b 413e ab10 923d
00000330: f273 503e e944 e0be 762a 34bd 674b 32be
00000340: fa81 49c0 3c50 81bf fad7 f9be 4ff0 abbf
00000350: d84d dc3e 68f3 c1be 9493 8fbf a5db e6bf
00000360: 9146 d33c 6047 2e40 b60e b7bf 0e4a 503f
00000370: 8852 e33e 8f37 a6be dcad fe3f 2768 c7be
00000380: c8c2 123f dbc2 c03e 915d dbbf 31ba a1bd
00000390: 6b4a 68bf cd2e 3cbf 1ac3 dbbe 8093 343f
000003a0: ce91 a33f db3a 8dbe f062 9abf 2811 943f
000003b0: 10e2 113f 67a7 963e 1f8c ab3e 8c6b 1140
000003c0: 8ef7 593f 8844 883f 091d 023f 4ddc 1cbf
000003d0: b089 343f ea09 1e3f d3e7 07bf 95e1 75bf
000003e0: b7a6 333f 6a93 38be 459e b4be f95c e73d
000003f0: fa70 abbf 6757 fcbe 2fcd a53f 9fcc 1abf
