version2/models/lora_histopathology/adapter_model.safetensors (torch, 76356 bytes, 6 tensors)

lora_q_A f4 [768, 4]
000000 1d fd 26 3c 60 2e a3 3c 4a ec ec 3b 46 8b 44 3c
       0.010192183 0.019919574 0.0072303163 0.011996096
000010 3e bf ac bc 43 d7 e9 bb d4 c8 ca 3c 21 1e 5b 3a
       -0.021087285 -0.007136257 0.024753965 0.00083586766
000020 4b cc e5 bb de d2 ce 3c 6c ff c0 bc 47 1f b9 bb
       -0.007012879 0.025247034 -0.023559295 -0.0056494805
000030 73 c1 8d bc 19 6c 6c bc 33 f4 8a bc 37 83 23 3c
       -0.017304158 -0.014430069 -0.016962146 0.0099800145
000040 7d eb 76 3c 86 a2 c0 3b 30 e7 f4 3c 2d 25 78 bb
       0.015070793 0.0058787493 0.029895395 -0.0037863955
000050 e0 bb 1c 3c fe d5 91 ba 34 de 2e 3b 8c 5e 85 3c
       0.009566277 -0.0011126397 0.0026682736 0.016280435
000060 9a ec 42 bc b6 dd 24 3c d9 d9 8a 3c 8c d1 ac bc
       -0.0118972305 0.010062626 0.016949581 -0.021096013
000070 16 c9 d5 bb 91 3f 71 3a 32 8f 0c bc 01 42 26 3c
       -0.0065242155 0.00092028925 -0.008579062 0.0101475725
000080 3a 9d a3 3c 8c 42 b6 bc d0 dc 83 bc 02 33 02 3c
       0.019972432 -0.022248529 -0.016096503 0.0079467315
000090 05 3d ca 3b 30 fa 18 3c 87 0b 8d 3c 56 db 80 bc
       0.006171825 0.009336993 0.01721741 -0.015729588
0000a0 a4 e4 66 bc c7 e7 17 ba ee 00 91 ba db 9f 03 3c
       -0.014092598 -0.00057947304 -0.0011062899 0.008033718
0000b0 2d c6 d4 3b 7d d9 41 3a ec 54 a6 bb f3 0e 22 bc
       0.006493351 0.0007394774 -0.0050760414 -0.0098912595
0000c0 97 77 3d b9 92 37 38 3d 0d ad a4 3c d9 c7 de bb
       -0.00018068995 0.04497487 0.020102048 -0.006798726
0000d0 76 ad 82 3c 50 b0 0a 3d 34 15 07 bc 0e c1 f3 bb
       0.015951853 0.03385955 -0.008244801 -0.0074387854
0000e0 0d 3e 49 bc 21 6b 88 bc f1 73 8f 3c 33 90 ca 3b
       -0.01228286 -0.016652646 0.01751134 0.0061817407
0000f0 63 f9 b7 bb aa 83 12 bd c7 6d 85 bb 1d ef be 3c
       -0.005614446 -0.035770096 -0.0040719244 0.023307377
000100 ab ed 0f bd ae 29 dd bc ae ea a6 bb 5c b2 86 3c
       -0.035138767 -0.026997413 -0.005093894 0.01644247
000110 d9 9d 1f bb a2 eb 10 3b 1d a2 11 3c ad bc 7b bc
       -0.002435556 0.0022113104 0.0088887485 -0.015364808
000120 31 e3 c3 3b 05 d8 51 bc 9a 73 a1 3a ee e1 df 3b
       0.005978011 -0.012807851 0.0012317777 0.006832353
000130 e9 dc 39 3c 08 92 72 bb 0c 94 22 3c 82 70 9f bc
       0.011344173 -0.003701331 0.009922992 -0.019462828
000140 60 2f e1 ba e7 e4 8e 3a 8b d4 86 3b e3 51 41 3c
       -0.0017180257 0.0010901958 0.0041146926 0.0117993085
000150 96 84 96 3c 93 d2 a2 bc 0c 61 f6 bc 3b 93 4f 3c
       0.018373769 -0.0198758 -0.030075572 0.01266938
000160 9b 2a c8 bb ca 43 fc bc 4b 4c 73 ba 19 01 8b bc
       -0.0061085946 -0.030794043 -0.0009281083 -0.016968297
000170 96 48 33 3d 20 22 93 3c 0a a3 22 3c e7 33 e2 bb
       0.043770395 0.017960608 0.009926567 -0.00690316
000180 57 1e 46 bb f8 da 6d bc a6 ec c3 3b 6f c4 d3 3c
       -0.0030230486 -0.014517538 0.0059791384 0.025850503
000190 30 f6 24 bb fe 7e 62 3b 62 04 11 bc 6f ef 58 bc
       -0.0025171153 0.0034560557 -0.008851143 -0.013240679
0001a0 a6 3f 39 3c 78 53 51 3c 31 18 14 3d 18 60 a2 bc
       0.011306679 0.012776248 0.036155883 -0.019821212
0001b0 be ad 71 b9 cd 43 1c bb e6 71 65 3b 1c 81 90 ba
       -0.00023048275 -0.0023844123 0.0035010516 -0.0011024806
0001c0 43 3d b1 3c 15 89 93 bc 84 7b 8a bb 21 ad d2 bb
       0.021635657 -0.018009702 -0.00422615 -0.00642933
0001d0 ab 4c 29 bc 4e 82 6b 3c 75 3e 95 3c 46 e9 99 3c
       -0.0103332205 0.014374329 0.018218258 0.018787991
0001e0 b5 55 8c 3c 35 9b 24 bc a6 23 06 bc 3f 70 d1 3c
       0.017130712 -0.01004677 -0.00818721 0.025566218
0001f0 11 60 d7 bb a7 88 3e bb ab b7 17 3c b3 1c ef 3b
       -0.0065727313 -0.002907315 0.009260098 0.0072971224
000200 f5 a9 2e bb 07 e4 88 3c 6a 1c 3a 3c 13 4d de bc
       -0.0026651595 0.016710294 0.0113593135 -0.027136361
000210 20 75 54 3a ea 3a 09 3c e3 e1 16 bd ac d4 35 ba
       0.0008104611 0.008375863 -0.036836516 -0.00069362926
000220 8d c4 b7 3b 5b 83 87 bc 24 06 1c bc 7e 24 d8 bb
       0.0056081475 -0.016542127 -0.009522948 -0.006596147
000230 03 e8 5a bb 44 6a 30 bd a9 bd 32 3c b6 c4 55 bc
       -0.003340245 -0.043070093 0.010909476 -0.013047388
000240 67 5b be bc a7 a2 42 3a 3d 06 6a 3c 0f c6 26 3c
       -0.023236943 0.000742475 0.014283714 0.010179057
000250 b0 00 8d 3b f6 c6 28 bb 05 37 39 3c aa 86 52 bc
       0.0043030605 -0.0025753356 0.011304622 -0.012849489
000260 fd 44 0c 3c 18 89 0d 3b d5 c1 21 bd 7f ae 8b 3c
       0.00856137 0.0021596607 -0.039491493 0.01705098
000270 ac ef 43 bc 7d e0 22 3c 4f 12 7c 3c 51 7e 3c 3b
       -0.011958998 0.0099412175 0.0153852245 0.0028761814
000280 a1 9b 2c bc da da 37 3c bd 8c 13 3b 73 15 c6 3b
       -0.010535152 0.011221612 0.0022514306 0.0060450374
000290 3d cd ba bc 92 9f 17 ba d9 db b3 3c 03 b4 d0 3a
       -0.022802943 -0.00057839707 0.021955417 0.0015922788
0002a0 da cc 60 39 da 09 08 ba be 52 25 3c d6 99 00 bd
       0.00021438618 -0.0005189456 0.010090528 -0.03139671
0002b0 d9 6b 16 bd 5d 3f 43 3c e5 7d 2e bb 5f 2e 10 ba
       -0.036723945 0.011916962 -0.0026625332 -0.0005500074
0002c0 26 16 da 3c b6 53 ae 3c 7d 3a d6 bb 93 1a 97 bc
       0.02662189 0.02128015 -0.006537734 -0.018445289
0002d0 66 b5 af bc a6 40 b2 bb 3e 4e 48 bb 6b 39 20 3c
       -0.021448802 -0.0054398356 -0.0030564214 0.0097793145
0002e0 16 00 23 3d cc f7 d9 3b 9e a1 cd bb 83 da c0 3c
       0.039795004 0.006651854 -0.00627537 0.023541695
0002f0 0a 95 ae bb 96 33 86 bc a3 5c d2 bc 46 51 db bb
       -0.0053278254 -0.01638202 -0.025678938 -0.006693038
000300 45 60 4d 3c 49 dc 09 3d 5d 04 86 3c 25 6b 02 3c
       0.0125351595 0.033657346 0.016359502 0.007960116
000310 47 ae 96 bc 6f fe a6 3c 36 15 5a 3c 07 d1 a4 bc
       -0.018393649 0.020384995 0.013310721 -0.020119203
000320 ca d4 de bb b7 f3 19 3d ca ca 0d bd 62 8e b0 bb
       -0.006800269 0.03758594 -0.034617223 -0.005388067
000330 48 28 c0 bc 64 af 82 bc e8 ee b7 bc cc 52 cb bc
       -0.023456708 -0.015952773 -0.022452787 -0.024819754
000340 0f 95 c5 3c 27 6c 10 bd b8 ca cb bc ee db b5 3b
       0.024118928 -0.035259392 -0.024876937 0.0055498993
000350 d5 d4 93 3c 76 fd 9f 3c 5e 56 d6 bc 04 f9 fe bc
       0.018045822 0.01953004 -0.02616423 -0.0311246
000360 22 34 00 bd 07 64 e3 3c 95 91 e6 bb c7 8b 29 bc
       -0.031299718 0.027757658 -0.0070363977 -0.010348267
000370 8b cc 95 bb 03 cd 5e bb 53 82 16 bc a7 01 96 3c
       -0.0045715026 -0.0033996708 -0.009186345 0.018311335
000380 a2 38 18 bc 47 c5 e9 bb a0 67 73 3c 9f 1a bf bb
       -0.009290846 -0.007134113 0.014856249 -0.005832031
000390 bd 85 80 3b 10 2a 00 3b 91 4a 19 bc 91 75 11 3d
       0.003922193 0.0019556321 -0.009356157 0.03551251
0003a0 68 80 18 bb 21 b6 2a bc 8b d3 a3 3c 92 10 3b bc
       -0.0023269895 -0.0104193995 0.019998332 -0.011417525
0003b0 93 16 8f bc bb 93 a1 3c ba 6a a0 bb d4 e8 8a bc
       -0.017466819 0.019723764 -0.0048955353 -0.016956724
0003c0 b0 f1 1b 3b bb 0e 2d bc 04 0b 21 3c e2 5d 03 3d
       0.002379518 -0.010562594 0.0098292865 0.032071956
0003d0 dc 70 cc 3b 0c af 35 bc 9b 64 dd 3b 9a be 03 bc
       0.00623904 -0.011089098 0.006756378 -0.008041048
0003e0 8d 7b 4a bb 2d 22 a8 3c ed c4 eb bc 80 c2 34 bc
       -0.0030896396 0.020524109 -0.028780425 -0.011032701
0003f0 0c 8c 3b 3b ce 89 a0 bb 61 5d 86 bc f5 26 16 3c
       0.002861741 -0.00489924 -0.016401948 0.0091645615

lora_q_B f4 [4, 768]
000000 a2 aa f5 3a 2b 74 a6 3c 18 12 87 3b 2d dd ed 3b
       0.0018742869 0.020319065 0.00412203 0.007259032
000010 17 60 02 bd 9e ad cf 3b 80 ab 4e bc 55 01 8e bc
       -0.03182992 0.0063378355 -0.012614131 -0.01733462
000020 e0 5d 85 bc 40 48 01 3c 61 bb 74 bc e6 8e 9c 3a
       -0.016280115 0.007890761 -0.014937253 0.0011944443
000030 37 53 f0 bb 09 7f e5 3b 92 36 0f bc 97 f0 bf bb
       -0.0073341387 0.007003669 -0.008741038 -0.005857538
000040 81 16 25 bc 51 f9 6c 3c 6c 4c f2 bb 8c 40 e0 bc
       -0.010076166 0.014463739 -0.007394364 -0.027374528
000050 18 72 b1 3c 32 1b a3 bb c5 02 1c 3b 63 af 1f 3b
       0.02166085 -0.004977607 0.0023805362 0.0024366013
000060 97 a3 84 bc a9 d5 f8 39 26 ac 13 bb 94 ca f9 bb
       -0.016191287 0.00047461435 -0.0022533028 -0.007623026
000070 21 71 fb bb cb b1 4e bc 53 cf 63 bc 27 64 92 ba
       -0.007673398 -0.012615631 -0.01390441 -0.0011168764
000080 08 a9 eb 3b 16 2f 65 bc d0 13 b4 bc 3b 1c a7 3a
       0.007191781 -0.013988277 -0.021982104 0.0012749502
000090 97 33 b7 bb cb d7 2b bc 3c fc 7c ba 56 e6 09 bb
       -0.005590867 -0.010488461 -0.0009650623 -0.0021041832
0000a0 be c1 0f 3c 7b eb 66 3a 04 3d 3c 3c 39 e5 45 3c
       0.008774219 0.0008808893 0.011489157 0.012078577
0000b0 7e e0 80 3c 1d 93 90 3c f1 d9 ef ba cf 5f 18 3c
       0.015732046 0.017648274 -0.0018299205 0.009300186
0000c0 d2 52 42 3c b6 b9 6b bc 83 c7 94 3c ce e6 4e 3c
       0.011860566 -0.014387539 0.01816154 0.01262827
0000d0 7d f6 44 3c b7 60 1c bc aa 08 75 bc c6 f6 05 bc
       0.012021658 -0.009544543 -0.014955679 -0.008176511
0000e0 65 ac df 3b 62 b1 ad 3c da 3b 7b 3b af 96 08 bb
       0.006825971 0.021202747 0.0038335235 -0.0020841768
0000f0 2e b4 bd bc 21 9c a6 3c a1 0b 29 3c 32 c7 d9 38
       -0.023157205 0.02033812 0.010317714 0.00010384469
000100 a9 0b 89 3c d6 1f 46 ba 9f 7b fa bb ac 85 df 3c
       0.016729193 -0.00075578445 -0.0076441313 0.02728542
000110 f9 33 11 3a 84 c4 69 bb 50 93 76 bc 6d 59 e6 3b
       0.00055390556 -0.003567011 -0.0150497705 0.0070297034
000120 62 6a 9d 3c eb 1d 56 3c 99 eb 16 bb be 4e a8 bb
       0.019215766 0.013068656 -0.002302861 -0.00513634
000130 09 46 5d 3c f0 75 48 bc fe da ce 3c e0 78 15 bc
       0.013505467 -0.01223515 0.025250908 -0.009123057
000140 33 99 ff b9 3a 8b e0 ba 3f f4 ad bb a2 f1 b3 3c
       -0.00048751532 -0.0017131336 -0.0053086574 0.021965805
000150 af 75 48 3c 53 23 a6 3a 2e 96 6e bc 71 91 50 3c
       0.012235089 0.0012675322 -0.014562173 0.012729988
000160 ef 58 00 bc af cb ce bb 68 97 57 3c ec 2f 47 bc
       -0.007833703 -0.006310902 0.013158657 -0.012157422
000170 8a db 6f 3c e6 9f 20 bb 88 38 98 bc c3 c6 de bb
       0.014639745 -0.002450937 -0.018581644 -0.0067985966
000180 2e 14 5b ba f1 f3 d7 bb 63 08 96 3b 42 fb 40 3c
       -0.0008357194 -0.0065903594 0.0045786365 0.0117786545
000190 f0 4e 55 3c 3a 72 bd bc ce 99 73 3c 56 5a 5f bc
       0.013019308 -0.023125757 0.014868213 -0.013632378
0001a0 52 5c cb 3b 6d 32 48 3b 31 d6 80 bc c7 4b fc 3b
       0.006206074 0.0030547634 -0.015727134 0.007699463
0001b0 84 e6 c0 bb 77 dc 80 bb 1c 87 14 3c 55 6a 44 bc
       -0.0058868546 -0.0039325315 0.009065416 -0.011988242
0001c0 1d 0f 36 3c f7 a2 70 3b 5c 47 b9 bc 3f 26 e4 3b
       0.011112002 0.0036718228 -0.022617035 0.006962567
0001d0 ff 0a 65 bc 9e 91 43 bc a6 ed d7 bb d6 74 2e 3c
       -0.013979672 -0.011936573 -0.006589609 0.010647973
0001e0 c8 bf 90 bc 8a 91 45 bc 79 21 50 3b b0 2f 11 39
       -0.017669573 -0.012058625 0.0031758233 0.00013846043
0001f0 88 74 1f 3c bf 65 20 3c 4f 99 a0 bc 62 ee 26 bc
       0.009732373 0.009789883 -0.019604353 -0.010188671
000200 95 97 81 3c da b9 40 bc 1c a7 0e bb 0a 4d 20 bc
       0.01581935 -0.01176306 -0.0021767085 -0.009783993
000210 82 fc 8e 3c db 58 82 bb 5c 49 60 3c cc 5f 8e 3c
       0.01745439 -0.0039778776 0.013689365 0.017379664
000220 d7 ad 88 3c 12 8d 4c bb a0 5c 8e bc 56 87 11 3c
       0.016684456 -0.0031212014 -0.017378151 0.008882364
000230 93 80 9c 3b 8c 06 4b bb 03 fe 37 3c 1a 00 56 bc
       0.0047760694 -0.0030979244 0.011229995 -0.013061548
000240 04 78 96 3b 33 30 22 bc e6 cc 91 3a 66 cf 00 bb
       0.0045919437 -0.009899187 0.0011123687 -0.001965487
000250 e5 e9 a6 bc 7f 06 a3 3b 5e 91 b0 3b cc c3 d2 bb
       -0.020375201 0.0049751396 0.005388423 -0.006432032
000260 8b 95 9e 3c 61 3b 89 bb bc 9d 4f 3c 83 77 ce 3b
       0.019358417 -0.0041879867 0.012671884 0.006300868
000270 d5 fe 21 bc 24 c9 21 3c c1 37 32 3c 7c 37 49 bb
       -0.009887417 0.009874616 0.010877551 -0.0030703237
000280 ee 60 93 bc f2 33 a2 3c 4a 5d 0a bc e6 18 2c 3c
       -0.017990556 0.01980016 -0.008445093 0.010503983
000290 48 83 27 bc c6 a8 de 3b 2d dd b5 3c 2b 89 31 3b
       -0.010224171 0.0067950217 0.022200191 0.0027089815
0002a0 5d 47 5a bc fa 09 03 bc 25 f8 63 bc 87 82 61 bc
       -0.013322678 -0.007997984 -0.013914143 -0.01376403
0002b0 60 8d 28 3c d3 dc 8c bc d8 39 b5 3b 54 0b b0 b9
       0.010287613 -0.017195141 0.005530577 -0.00033577776
0002c0 28 54 8a 3c 06 12 e0 3c 62 5e c7 3b 9c 40 ea 3a
       0.016885832 0.027352344 0.0060842494 0.0017872038
0002d0 81 95 67 3c df 12 b0 bb 7f 6b 88 bc 3e 26 bc bc
       0.014134766 -0.0053733434 -0.01665282 -0.022967454
0002e0 de 8d 7a bc 83 a4 4e 3c 92 97 d0 3b 03 e7 35 3c
       -0.015292613 0.012612465 0.006365725 0.011102441
0002f0 92 0b e4 3c 35 c5 a4 bb 9f dc b0 bb 02 af 01 3c
       0.027837548 -0.0050283917 -0.005397394 0.00791526
000300 ac 15 97 3c 85 08 02 39 bf 9c 76 3c 86 d9 88 bc
       0.018442951 0.0001240094 0.01505202 -0.016705286
000310 f4 e2 f2 bb 35 cc bd ba 9f 28 15 3b 4f af be 3b
       -0.007412309 -0.0014480414 0.0022759808 0.0058192383
000320 fa 25 c3 3b c1 68 00 39 94 51 51 bc 8a 9f 06 3b
       0.005955455 0.00012246055 -0.012775797 0.002054187
000330 1d bd 9e 3b f5 2f ad 3c d4 15 0a bc f9 03 b4 3b
       0.0048443214 0.021141032 -0.008428056 0.0054936376
000340 db 65 8e bb 10 9f f1 bb 8e e3 a4 bb 93 24 5f bb
       -0.004345638 -0.007373698 -0.0050320094 -0.00340489
000350 16 36 ba 3b 74 85 24 bc 64 68 59 bc 61 d2 33 3c
       0.005682717 -0.010041583 -0.013269518 0.010975451
000360 67 72 86 bc e6 3f 6f 3b f5 24 29 3b 73 b0 73 3c
       -0.016411973 0.0036506592 0.0025809382 0.014873612
000370 36 99 5a 3c 2b 2e 00 3c ec 88 e6 bb 47 eb a4 3c
       0.013342192 0.007823507 -0.0070353653 0.02013172
000380 43 f5 1c bb 0b bc 04 bc 9d 55 f0 b9 9f 7b 91 3c
       -0.0023949898 -0.008101474 -0.00045840154 0.017759142
000390 0b 0c 97 bc 63 03 be bb bf 68 71 bc 0f 41 c1 bc
       -0.01843836 -0.0057987436 -0.014734446 -0.023590593
0003a0 4c 6f 1b bb 7b b2 09 3c fb 7b b3 3c fa eb 0f 3b
       -0.002371746 0.0084043695 0.021909704 0.0021960721
0003b0 be 94 57 3c 82 3a 5a 3b 0a 3e 0d 3a fb d2 03 bc
       0.0131580215 0.0033299034 0.00053879677 -0.008045907
0003c0 1e e9 5d 3c f4 2e a1 ba 8f a4 10 bc 60 57 bf ba
       0.013544349 -0.0012297318 -0.008828296 -0.0014598183
0003d0 43 10 e0 3a 9e 35 ae 3b 69 2b 89 bb d5 3d 04 3c
       0.001709469 0.0053164503 -0.004186083 0.0080713825
0003e0 af 88 93 3c 99 8d c7 3c d2 8a 95 bc df 92 8a 3c
       0.018009512 0.024359511 -0.018254671 0.016915737
0003f0 66 e5 74 bc 84 54 29 bc 9c 98 f8 3b c4 10 d1 3c
       -0.014947271 -0.0103350915 0.007586552 0.02552069

lora_k_A f4 [768, 4]
000000 8d f5 91 3c e9 ff d9 bb 77 5d cf bc ac 16 75 3c
       0.017817283 -0.0066528213 -0.025313122 0.014959019
000010 a0 da af bb 01 1c 22 bc 82 ba 0d 3d d4 9c 94 bc
       -0.0053666383 -0.009894372 0.034601696 -0.018141188
000020 12 e7 2c bc 34 55 02 bd 34 97 94 3b 01 85 4c 3b
       -0.010553138 -0.031819537 0.0045346264 0.0031207206
000030 9c 83 65 3b 9c bc 9b bc 5d 9a 0a b9 47 b9 df bc
       0.0035021072 -0.019010834 -0.0001321821 -0.027310027
000040 20 a4 99 bb b2 46 7c bc a5 53 8c 39 8a ae c9 bc
       -0.0046887547 -0.015397714 0.000267652 -0.02461936
000050 4a 1e c9 bb 53 24 72 3c db dd a4 bc 7e 96 05 3b
       -0.006137644 0.014779168 -0.02012532 0.002038389
000060 a2 10 2a bd d9 a1 09 3c 97 ed 5a 3c a2 4c f3 3b
       -0.04151977 0.008400404 0.01336231 0.007424907
000070 fc e1 dc 3b 17 21 3f 3c 7a 9d 59 3c ac 52 47 bc
       0.0067408066 0.011665604 0.013282174 -0.012165707
000080 72 1b 1d bd e5 80 3f bb 37 c3 12 bc 52 52 25 3c
       -0.038356252 -0.0029221114 -0.008957676 0.0100904275
000090 51 95 4d 3c a4 c8 07 3d 80 cc 91 3c b4 1d 06 3d
       0.012547807 0.03315033 0.017797709 0.03274317
0000a0 ff bc 64 bc 25 fb a3 3c 3e 4b 93 3c f0 81 7e 3c
       -0.013961076 0.020017216 0.017980214 0.015533909
0000b0 98 0f 90 bc 96 64 b8 3c e6 74 61 bc 19 5a 3b bc
       -0.01758556 0.0225089 -0.013760781 -0.011435055
0000c0 2d f7 18 bc 24 9a 84 3a 31 2d cb bc 25 f7 eb 3c
       -0.009336275 0.0010116738 -0.024801822 0.028804371
0000d0 69 53 9c 3c f8 08 62 bc 2d af be 3b b3 bb 4c bc
       0.019082742 -0.013796084 0.0058192224 -0.012495923
0000e0 36 80 05 bc 22 84 7c 3c e8 2b 03 3c 3a 4f d8 bb
       -0.008148244 0.015412362 0.008006074 -0.0066012414
0000f0 13 d6 b6 3c fe 43 2c 3d 08 0e 0b bd ee 6a da bb
       0.022318875 0.04205703 -0.033948928 -0.006665579
000100 56 d4 e4 ba 40 e1 43 bb 76 11 84 3c 97 ea 8c 3c
       -0.00174583 -0.0029888898 0.016121607 0.017201705
000110 a8 36 8e 3c 23 6b 84 bc c8 3b 9f 3a 9c 8e 38 3c
       0.017360047 -0.016164368 0.0012148554 0.0112644695
000120 00 2d fb bc f3 49 bd 3c 51 fc 70 3d 31 5c fc 3c
       -0.030661106 0.02310655 0.058834378 0.030805679
000130 1b df a8 bc cd d9 87 bc 20 d8 38 3c 35 ae 93 bb
       -0.020614197 -0.016583348 0.011281997 -0.004506851
000140 43 21 8c bb f4 b2 45 3c 32 9e 9c bb be 36 a0 bc
       -0.004276426 0.0120665915 -0.0047796005 -0.019557353
000150 ac 7e 4b bc 99 c7 ed 3b 67 db 08 bb 85 bf 88 bc
       -0.012420338 0.00725646 -0.0020882727 -0.016692886
000160 7e b5 ba 3c 49 d1 95 3b 6f 82 1b bc 6d 52 e1 bc
       0.02279162 0.004572068 -0.009491547 -0.027505124
000170 4e 17 de 3b 80 aa 45 3c 9e 62 7b bc de fb 2d 3d
       0.0067776805 0.012064576 -0.015343336 0.042476527
000180 e0 e2 f2 3c 71 1d ba bc d3 6d 82 3b 1a ce 5e bc
       0.029649198 -0.022719117 0.003980377 -0.013598943
000190 63 a8 53 bc 41 05 25 bd a1 4a 86 3a 45 57 33 bb
       -0.0129185645 -0.040288214 0.001024563 -0.002736525
0001a0 da 3d d6 3c b3 33 4e bc 47 7e c6 3a 2e d6 55 3a
       0.02615254 -0.012585568 0.0015143835 0.00081572204
0001b0 d0 51 02 3c 24 d4 90 3b 7b e2 a0 bc 77 39 f2 3c
       0.007954076 0.0044198204 -0.019639244 0.029568417
0001c0 c6 2e fd 3c cf a9 2c 3c a7 0e 5d bc 30 15 9f bc
       0.030906092 0.010538532 -0.013492263 -0.019419283
0001d0 cf a2 8e bc 19 3c 3b 3c d2 78 aa bc 0f e4 7b 3c
       -0.017411618 0.011427903 -0.020809565 0.015374198
0001e0 27 7a cb bc fa 97 4b 3c 06 5c 2e 3d 8d 82 41 3d
       -0.02483852 0.012426371 0.04256823 0.047243644
0001f0 3e 44 c3 b9 a1 e5 60 3c aa dd 02 3d 06 32 8e ba
       -0.00037244143 0.013726623 0.031949677 -0.0010848648
000200 27 16 f5 3c f7 9b be bb d7 47 87 3c 1a 49 c1 bb
       0.02991779 -0.0058169323 0.016513748 -0.005898607
000210 44 f5 85 3b 57 3b 64 bc fd 51 a3 3c 61 4d 72 bc
       0.004088076 -0.013930163 0.019936556 -0.014788956
000220 5e 31 53 3a 2a 63 05 3d 93 9f 10 3d 5f e9 ed ba
       0.00080563675 0.032565273 0.03530843 -0.0018151215
000230 37 48 62 ba 97 ce 44 bb 5c 4f 39 3c 81 b0 c0 3c
       -0.00086319767 -0.0030030364 0.011310425 0.023521664
000240 73 0f 17 3c 1b 79 0a bd 5e d7 6a bb bc 4c 90 3c
       0.009219992 -0.0338069 -0.0035833935 0.017614715
000250 ac f3 c6 3c 5f ec 3f 3c 07 0c 07 3c 5a 43 40 3c
       0.024286114 0.01171407 0.008242614 0.011734808
000260 16 2d ca bc 6f d3 50 3c 9e 39 84 3b 63 11 b7 bc
       -0.024679702 0.012745722 0.004035189 -0.022347158
000270 a0 6c ff 3b bc 95 e7 bb 2c b2 39 bc c4 dc 05 3c
       0.0077949315 -0.0070674103 -0.011333983 0.00817031
000280 e1 5f 33 bb 6e df 25 bc ab 27 42 bc de 25 aa bc
       -0.002737038 -0.010124071 -0.011850278 -0.02077001
000290 f3 5c 8c 3c 88 20 8d 3b 9f 6b 11 3c 99 9f 04 bb
       0.017134165 0.0043068565 0.0088757565 -0.002023673
0002a0 8d 90 44 3c 69 54 41 3c db b3 e1 bb a3 bc 0e 3c
       0.011997354 0.01179991 -0.0068878955 0.008711967
0002b0 a2 2c 6b bc 52 4f f9 3b 77 9a ee bc af 31 56 3a
       -0.014353903 0.0076083327 -0.029126389 0.00081708556
0002c0 f2 4f fb 3a 0e 8f 20 bd 04 43 b2 3b ce 82 17 bb
       0.0019173606 -0.039198928 0.005440118 -0.0023118737
0002d0 ca 4b 2b bc b8 45 1f ba 5a 86 fa 3c eb e7 ed bc
       -0.010455081 -0.00060757576 0.030581642 -0.029041251
0002e0 73 36 b0 bc da a0 61 bc 4b 89 8f 3b 0e a4 0e 3c
       -0.021510338 -0.01377126 0.0043803803 0.008706106
0002f0 f0 03 09 bb 9d 6f a9 3b f6 a4 0e bc 49 9b 2c bc
       -0.0020906888 0.005170776 -0.008706322 -0.01053507
000300 e9 ad 7a 3c 6c 1e e2 3c a3 fa cd bc aa cb a8 3c
       0.0153002525 0.027602397 -0.025143927 0.020604927
000310 17 e8 ef bc c5 1e af bb ed a7 c0 3c 0d 93 59 bb
       -0.029285474 -0.005344244 0.023517573 -0.0033199221
000320 01 c4 3b 3d 51 86 80 bc a1 bd 26 bb 76 54 81 bc
       0.04584122 -0.015689047 -0.0025442617 -0.015787344
000330 36 65 6b bc 6d e5 2e 3b 51 dc a6 39 19 c2 14 bd
       -0.014367392 0.0026687041 0.00031826136 -0.03631792
000340 14 37 25 3c ee 3c e2 bc bc f7 0a 3c 41 c5 ae 3a
       0.010083932 -0.027616944 0.008481916 0.0013333933
000350 fd a6 3e bc 8f ba e5 b9 a5 c9 25 3d c7 39 b4 3b
       -0.011636493 -0.0004381728 0.040475506 0.0055000517
000360 ae 14 b2 3c a9 81 12 3d 34 a4 89 3c c2 fe b8 3c
       0.021738376 0.035768185 0.016801931 0.022582415
000370 af e2 1e bc 4c c9 15 3d ab cc 2a bd dd 4e 0e 39
       -0.0096976 0.036568925 -0.041699093 0.00013571554
000380 94 26 79 3c f5 e0 83 3c f9 f5 fe 3c 5a ec 9c bc
       0.015206952 0.016098479 0.031123148 -0.01915567
000390 a0 b0 de bc 86 47 bc bc 8f 2f 01 bb f2 d1 d6 bb
       -0.02718383 -0.022983324 -0.0019712185 -0.006555789
0003a0 42 1f ff bb 03 b9 4c 3c e2 f9 eb 3b cc 95 c7 3c
       -0.0077857086 0.012495282 0.007201419 0.02436342
0003b0 d4 6a 7e 3b af dd d5 3c dc 51 35 3b 62 09 a6 3c
       0.0038820999 0.026106684 0.00276672 0.020268146
0003c0 7c 7e de bc 51 b5 26 bd e3 0d 03 3d 9c 43 e4 3b
       -0.027159922 -0.04070026 0.031995665 0.0069660675
0003d0 02 ac 60 3b 06 0a 60 3c e3 75 0b bd 9b f5 9e bb
       0.0034282212 0.013674265 -0.034047972 -0.004851056
0003e0 86 8b 6a bb 41 f3 49 bc 1d 44 8f bb 46 cd 2f bc
       -0.003578873 -0.012326063 -0.0043721334 -0.010730093
0003f0 ce 68 0b 3c da ed 98 bc bf fa 00 bc 29 fc e6 bc
       0.008508874 -0.018668104 -0.0078722825 -0.028196411

lora_k_B f4 [4, 768]
000000 25 c9 29 3c 6a 9b 27 3c 0c d7 85 bb 8e 21 bb 3c
       0.010362898 0.010229925 -0.0040844735 0.022843149
000010 c2 78 8a bc 36 b2 04 3c d2 06 80 3c 41 2f 1c bc
       -0.016903285 0.008099129 0.015628252 -0.009532751
000020 19 d0 2d 3c e0 28 49 3c 4c 37 c8 3b ea 70 7f 3b
       0.010608696 0.012277812 0.0061101075 0.0038977214
000030 d4 96 02 bb 22 52 2c 3c d3 4c 03 3d 0c d5 5d bc
       -0.0019926326 0.010517629 0.032055687 -0.013539564
000040 d8 aa 06 bc cf 93 3d bb 39 1e 19 bc 50 d2 3d 3c
       -0.008219443 -0.0028927212 -0.009345585 0.011585787
000050 f6 48 1c 3b 4e 00 01 3b 43 44 a9 bb 13 3a ba bc
       0.00238472 0.001968402 -0.005165608 -0.02273277
000060 43 05 9b 3c ef f0 de 3a f2 55 7d 3b b9 c1 69 bc
       0.018923407 0.001700906 0.0038655964 -0.0142673785
000070 d2 4a a6 bb 7f 9a b2 3c d4 c4 86 3b 1e ad cb 3a
       -0.0050748372 0.021802185 0.004112819 0.0015539264
000080 50 34 82 3c ef 39 b8 3b e6 28 14 bc cd 35 2c 3c
       0.015894085 0.0056221406 -0.009042954 0.010510874
000090 b4 71 3d 3c 1d 3b 5c 3c 16 a0 80 3c 68 6c 06 3d
       0.0115627535 0.013441828 0.015701335 0.032818228
0000a0 b8 52 58 bc 8d cc 60 bc 0a 26 ee ba 61 25 23 bc
       -0.013203315 -0.013720644 -0.0018169296 -0.009957642
0000b0 e9 a4 6c 3c 1a 57 a7 3a 1c a2 4c bc 2c ce f5 3b
       0.0144436145 0.0012767047 -0.012489822 0.0075013842
0000c0 c2 20 2e 3a 59 75 9b bb 60 b1 e4 3b 85 2b 82 3b
       0.00066424545 -0.0047442135 0.0069791526 0.003972473
0000d0 3d 5d 9a bc 17 6b 1a 3c 70 31 01 3c c2 4d e2 3c
       -0.018843288 0.009424946 0.007885322 0.027624968
0000e0 26 1d 8a 3b 08 0c ca 3c 52 87 1b 3c df fa 41 3c
       0.0042149005 0.02466394 0.009492712 0.0118395975
0000f0 fb b8 ab 3c 62 68 4c ba 60 0d 24 bc 66 bf f6 3a
       0.020962229 -0.00077975367 -0.0100129545 0.0018825352
000100 15 f5 86 3c fe db 87 3c 7b d3 f7 bb 30 25 45 bb
       0.016474286 0.016584393 -0.0075630522 -0.003008198
000110 36 d0 e8 3c d3 fb 22 3c 84 ef 10 3c b1 c3 c2 bb
       0.028419595 0.009947735 0.0088461675 -0.0059437384
000120 c9 8f b3 3c 45 ec 3f bb 1f f8 0c 3c c7 8c b1 3c
       0.021919148 -0.0029285115 0.008604079 0.021673573
000130 21 2c eb 3b bc b4 33 3c f8 9e 25 bc 9b fb 89 bb
       0.0071768914 0.010968383 -0.010108702 -0.004210902
000140 a5 1d 17 bc 92 0c 88 3c 7b 39 95 3b 94 46 4c 3c
       -0.009223376 0.016607556 0.0045539713 0.012467999
000150 bb 82 06 3c 24 15 08 3c 5a 13 90 3b 74 c7 a9 bb
       0.0082098795 0.008305822 0.004396838 -0.0051812474
000160 8b 66 c5 3b d3 52 5e 3c 1a 95 cb bc 87 08 67 ba
       0.006024187 0.0135695515 -0.02485137 -0.00088132214
000170 e3 c2 21 3c ad 98 8c bc 0c 36 df bb 6a 4b 04 bb
       0.009873125 -0.017162645 -0.006811863 -0.0020186552
000180 1f 39 43 bc 75 a4 40 3c 92 e5 2d bc 1a 84 f4 3b
       -0.011915474 0.01175796 -0.010613816 0.007462037
000190 d8 e0 e9 bc 04 84 84 bc dd ba d9 3c 38 06 c7 3c
       -0.028549597 -0.016176231 0.026578361 0.024294958
0001a0 1f 4a 91 3c 92 3e 6d 3c 74 e5 40 3c 64 6e f3 3c
       0.017735539 0.01448025 0.011773456 0.029715724
0001b0 fc 86 b7 ba d8 6b 3c bc 10 5d 3b bc 29 7c 05 bc
       -0.001400202 -0.011500321 -0.011435762 -0.008147278
0001c0 1b fd 2d 3c 40 c1 37 3b fe d4 4d 3c bb 3e 49 ba
       0.010619427 0.002803877 0.012562988 -0.0007676889
0001d0 ea 82 73 3c 89 90 c6 bb 78 2d ca bc 2d fb b4 3c
       0.014862755 -0.0060597104 -0.024679884 0.022092426
0001e0 f1 7c 36 3b 26 3d 1a 3b 81 d5 f4 bc de 3b c7 3b
       0.0027845467 0.0023534982 -0.029886963 0.006080135
0001f0 ca 3f 87 bc 46 92 97 bb 96 ef 9d 3c bc c9 da 3b
       -0.01650991 -0.0046255914 0.019279283 0.0066768806
000200 92 91 f0 3b eb 95 fa 3b 11 3d 8b 3c a2 96 41 bc
       0.007341572 0.007647266 0.016996892 -0.011815699
000210 9b b7 6d bc 1d 36 8c bc 34 54 95 3b 31 51 22 bc
       -0.014509107 -0.017115647 0.004557157 -0.009907053
000220 bd 91 d6 bb d0 45 f0 3a 94 12 3b bc e6 c3 f8 3a
       -0.006548135 0.0018331353 -0.011418004 0.0018979281
000230 8a b7 c1 bc 37 6d 51 3c 6a 36 2a bc 32 62 38 bb
       -0.023647089 0.0127823865 -0.01038895 -0.00281347
000240 1b 66 b5 bb ad 41 16 3b 32 a6 c6 bc f5 31 68 bb
       -0.0055358536 0.002292733 -0.02424917 -0.0035430167
000250 6d 1a 4c 3c 3d 3d e3 3b cf a7 b7 3b 60 55 32 3c
       0.012457472 0.0069347904 0.005604721 0.010884613
000260 41 a0 4b bb ee 8b 91 bc 0a 2f 57 bc dd 7a 9c bb
       -0.003107086 -0.017766919 -0.013133774 -0.0047753886
000270 9a 67 07 bc db b8 17 bb 0b cc 39 37 f6 b8 18 3c
       -0.008264447 -0.0023150954 1.1074367e-05 0.009321442
000280 e9 f5 a2 3c 48 52 ff 3b 03 38 d2 bb 7c 28 d9 bc
       0.01989265 0.007791791 -0.0064153685 -0.026508562
000290 3e e2 12 3a c0 60 c6 bc 25 0d e1 3b d2 04 33 3c
       0.0005603171 -0.024216056 0.006868022 0.010926442
0002a0 a2 3e 14 bb fb 9c 6b 3b e3 ee 25 3b a6 8f 08 bb
       -0.002262034 0.0035951722 0.002531939 -0.0020837574
0002b0 d8 5e 38 bc ec f8 f7 bb 54 1c 64 3b 02 2f 17 3c
       -0.011253081 -0.0075675156 0.0034806924 0.009227516
0002c0 38 93 86 3b be 10 b8 bc 1f 85 7a 3c 15 d2 41 3c
       0.0041069053 -0.02246892 0.015290528 0.011829873
0002d0 45 94 4f 3c 3b 45 81 3b a1 86 32 bb a6 80 8c 3a
       0.012669628 0.0039450205 -0.002724089 0.0010719493
0002e0 f5 ec 31 3c 0a ff 6c ba 53 a8 cb bb 27 a9 83 3c
       0.010859718 -0.00090406893 -0.006215134 0.016071869
0002f0 1e 38 b8 bc 20 97 c4 39 1d 79 b6 bc ba ef a1 bc
       -0.022487696 0.0003749663 -0.022274548 -0.01976763
000300 df ef eb 3b 3c 90 aa 3c 37 96 8a 39 8a ef 92 bc
       0.0072002257 0.02082073 0.0002643333 -0.017936487
000310 63 76 e5 bb 13 e7 0b 3c 1d 5f 8b bb 29 39 c3 3c
       -0.007002638 0.008538979 -0.0042532817 0.023830967
000320 6f 17 8d 3c 80 87 72 bb 92 1a f2 bb ed 02 56 bb
       0.017223088 -0.0037007034 -0.0073884213 -0.0032655552
000330 d7 f3 33 bc 84 ac 32 bc 03 19 9f bb 6a cd 1b bb
       -0.010983429 -0.010905389 -0.0048552766 -0.002377356
000340 4f a6 a5 3c 7d 2a da 3b 10 b1 5d bc ad 50 c4 3b
       0.020220904 0.006657897 -0.0135309845 0.0059910626
000350 20 8b 2c b9 29 31 a7 bb af 16 88 bb a4 05 c8 3a
       -0.00016455026 -0.005102296 -0.0041530947 0.001526047
000360 a8 fa a1 bc 01 ab 89 3a 92 12 60 bc 58 aa 98 bc
       -0.019772843 0.0010503234 -0.0136763025 -0.018635914
000370 43 46 69 bc 60 a0 4e 3c c7 7a ac bb 66 1a 58 3c
       -0.014237943 0.012611479 -0.0052636596 0.013189888
000380 e8 b3 59 3c a9 f0 99 3b 6e 6a 75 3c a7 bf 2a bc
       0.013287522 0.0046978784 0.014978988 -0.01042167
000390 49 88 83 bb c7 35 f9 ba c8 44 4d bc a8 7a 12 bc
       -0.004014049 -0.0019013219 -0.012528606 -0.008940376
0003a0 6c ed 8d bc 99 41 fd 3b da 7e d3 3c c3 4f 39 3b
       -0.017325126 0.007728767 0.025817323 0.0028276301
0003b0 6a 7e 4c bb 2f bc 3f 3c dd 55 52 3c 2b 6e f3 bc
       -0.0031203278 0.011702581 0.012837854 -0.029715618
0003c0 63 c6 00 bb ee a0 ba 3b 1a 52 96 3c 30 0d 17 3a
       -0.0019649498 0.005695454 0.018349696 0.0005762158
0003d0 51 d7 fe bb d2 5d 53 3b a8 11 ba bb 8e 47 cb ba
       -0.0077771326 0.0032251966 -0.0056783743 -0.0015508996
0003e0 85 67 e0 3b a0 fc b2 bc 2d 30 08 bc 19 bf c8 3b
       0.006848278 -0.021848977 -0.008312267 0.0061262962
0003f0 80 8c c9 bc bb a7 82 bb 05 33 6b 3c fb 78 38 bc
       -0.024603128 -0.00398728 0.014355426 -0.011259313

lora_v_A f4 [768, 4]
000000 e7 18 35 3c 68 df 2d bc d5 00 0f bb 35 04 48 bb
       0.0110533 -0.010612346 -0.0021820564 -0.0030520086
000010 36 71 5c bd 3a 6a 18 3c c2 86 14 3d e1 15 5b bc
       -0.053818904 0.00930267 0.036261328 -0.013371916
000020 b2 ab 15 3c 3b 1e d0 3c 8a 57 ca bb d7 d9 85 3b
       0.009135174 0.02540504 -0.0061749863 0.0040848064
000030 c0 7d 15 bc f1 05 3f 3c 7f 1b a0 bc da bb a0 3c
       -0.009124219 0.011659131 -0.019544361 0.019620825
000040 09 29 05 3d 21 7f 0b bc 0b 0e 8f 3b f4 59 8c 3b
       0.032509837 -0.008514197 0.0043656877 0.004283184
000050 4d d9 10 bc 65 4c c3 bc 39 15 cf bc dd e6 c7 3b
       -0.008840871 -0.023840139 -0.025278674 0.006100519
000060 3a c9 13 3b 54 db 61 bc 2c ed 2b 3c e7 25 e8 bb
       0.002255036 -0.013785202 0.010493558 -0.0070845964
000070 34 f9 49 3c c5 4c ea 3b 41 a4 6e bc e8 ab 9b 3c
       0.012327481 0.007150265 -0.014565528 0.01900287
000080 1a 56 0a 3b 63 e4 9e 3c 8d 17 40 3c 29 11 e1 3c
       0.002110845 0.019396013 0.011724365 0.027474003
000090 9a fc 1a bc 98 de ae 3b 6c 54 d1 3c a3 49 cf bc
       -0.009459639 0.005336594 0.02555295 -0.025303667
0000a0 b3 83 54 3c 29 93 ef bc 64 a4 a7 3b 62 0a 07 3b
       0.012970853 -0.029244976 0.0051160324 0.0020605554
0000b0 97 f8 4e bc b2 41 59 bc 42 28 3d 3c f5 15 2d 3c
       -0.012632511 -0.013260292 0.011545243 0.010564317
0000c0 60 a2 61 bb 5b a3 c0 3c 03 ff ba bb a2 5a 9c 3a
       -0.0034429058 0.023515394 -0.0057066693 0.0011928866
0000d0 6c f3 1f 3d 93 31 e0 3b 23 34 37 3c a5 dc 1b 3c
       0.039050505 0.006841847 0.011181864 0.009513055
0000e0 46 e5 b8 bc 92 24 06 bc 9a 5c a9 3c 27 47 45 bb
       -0.022570264 -0.00818743 0.020674039 -0.0030102225
0000f0 19 20 a0 bc b7 ee 71 bc 64 17 28 3c e4 f2 38 3c
       -0.019546555 -0.014766387 0.010259483 0.011288378
000100 30 a6 06 bd d7 97 8c bc 71 08 52 3c da 5d bc bb
       -0.032873333 -0.017162247 0.012819395 -0.0057484927
000110 99 e5 30 bc ec bf 06 3b d1 cc 86 bc 62 05 f7 bb
       -0.010796928 0.0020561172 -0.016455086 -0.0075384835
000120 2c 2f 1f bc 5a 67 24 bc fc 84 7a bc 5d 06 13 bb
       -0.0097158365 -0.010034407 -0.015290495 -0.0022434213
000130 be fc 4b bc 92 e3 ef ba 30 06 88 3c cf 8d c3 bc
       -0.012450395 -0.0018302074 0.016604513 -0.02387133
000140 b0 36 fa bb 79 ae 8e bb 53 bf 4d 3b 1c 66 e7 b9
       -0.007635914 -0.004354295 0.0031394556 -0.0004413583
000150 6f 43 ef 3c b1 e8 a9 3c 8a d0 8f bc e1 8b dd bc
       0.02920696 0.020740839 -0.017555494 -0.027044239
000160 ae 8d db 3c 1a 8b a9 bc ae fe 4a bc b7 1b ba 3b
       0.026800957 -0.020696212 -0.012389822 0.0056795734
000170 ad 70 94 bc e5 73 a6 3c 03 08 1b bc 4a 01 0d bc
       -0.018120134 0.020318935 -0.009462359 -0.008606264
000180 ec c7 09 39 4a ec a7 b9 db e6 82 bc cd fa b7 3c
       0.00013139815 -0.0003202877 -0.015979221 0.022458458
000190 64 55 52 3c a3 0c d4 3b 31 01 78 bc 98 95 38 3a
       0.0128377415 0.006471233 -0.015137003 0.0007041334
0001a0 1a e1 ec 3b 26 80 a3 3b 10 6f 0b 3d 93 81 a0 bc
       0.0072289826 0.0049896417 0.034041464 -0.019593036
0001b0 ee 1d d5 3c 76 7c 32 bc 37 51 b4 3c bf 6f df 3c
       0.026015248 -0.010893932 0.022011383 0.027274964
0001c0 75 93 c5 bc b4 0a f3 bb ce 61 f4 3c 2a 56 2c bc
       -0.024118165 -0.0074170474 0.029831793 -0.01051859
0001d0 0e 69 49 bd 7e 6f 21 bc 17 b9 df bb c0 3c a5 bc
       -0.049172454 -0.009853242 -0.0068274844 -0.02017057
0001e0 57 96 61 bb b8 10 1f bc dc e5 97 3a 57 52 f0 3c
       -0.0034421885 -0.009708576 0.0011588889 0.029336138
0001f0 ba 34 d8 3c 84 73 c2 bb 88 80 48 bc 68 73 1b 3b
       0.02639233 -0.0059341807 -0.0122376755 0.002371991
000200 6b 60 b5 bc 9a 60 cb 3c d2 bb 8d bc 95 bc 65 bb
       -0.022140702 0.024826337 -0.017301474 -0.003505503
000210 bf 62 a6 3a b8 45 35 3c 83 73 b2 3c 3f c6 af bb
       0.0012694224 0.0110639855 0.021783596 -0.005364209
000220 43 ca 0e bc f4 bc 95 bc c9 62 d8 3a d9 49 cf 3c
       -0.008715215 -0.018278576 0.0016508932 0.025303768
000230 6c 42 e5 bc 53 43 89 bc 83 fe 0b 3c 54 8d 2a 3c
       -0.027985774 -0.016755736 0.008544567 0.010409672
000240 51 1d 7d 3c 81 27 ff bc 1b a6 62 bc 0d 2f 08 bc
       0.015448884 -0.031146767 -0.013833548 -0.008311999
000250 07 58 e6 3c c9 60 04 bc 41 ef 15 bc b1 1f 33 bc
       0.028118147 -0.008079716 -0.009151281 -0.010932849
000260 c5 be c2 3c 78 53 34 3b b5 c1 1f bd 7c 8d 28 bd
       0.023772607 0.0027515572 -0.039003093 -0.041150555
000270 83 b7 ca 3b 5c 89 87 3c 9a b8 c2 3c 4f 8b 8a bc
       0.006186427 0.01654499 0.023769666 -0.01691213
000280 ef fe 0d bd 59 b4 04 3d 9d 4e f3 3c 0b 7e 22 ba
       -0.03466695 0.032398555 0.029700572 -0.00061985914
000290 a1 9b 5a 3b 78 40 9e 3b cc 4b 01 bc 08 aa c4 3c
       0.0033356922 0.0048294626 -0.007891607 0.024006858
0002a0 20 af 5e 3c 7a 37 ad 3b cd 34 ef 3b cf f3 ef ba
       0.013591558 0.0052861543 0.0072999955 -0.0018306914
0002b0 ae 27 f0 3c 17 cf 6d 3c 27 43 06 3c bf 42 e2 3c
       0.029315796 0.014514706 0.008194721 0.027619718
0002c0 9d dc 8a bc 43 9f 13 3c 55 0c 10 3d 25 e5 b6 3c
       -0.0169509 0.009010139 0.03516801 0.022326062
0002d0 72 0a 87 bc 5f a8 cd 3c b4 b1 14 3c fe e2 82 bc
       -0.016484473 0.0251047 0.009075571 -0.015977379
0002e0 e2 3a 09 bb 3a e5 94 bc bd 9d 1f bc 46 ef ac ba
       -0.0020939638 -0.01817571 -0.009742198 -0.0013193868
0002f0 a9 47 67 bc 17 56 38 3c 5f 16 e5 3b bf 70 38 bc
       -0.014116206 0.011250994 0.006991192 -0.0112573495
000300 23 66 f4 3b b8 6c 0a 3c 17 7c 88 bc e4 c9 19 bb
       0.0074584647 0.008448772 -0.016660733 -0.0023466283
000310 39 36 57 3c e4 05 ef bb cf 5b db 3c d2 05 2a 3c
       0.013135486 -0.0072944034 0.026777176 0.010377364
000320 83 79 9b bc 49 57 29 3c f9 d6 a6 3c bb 62 ff bb
       -0.01897884 0.010335752 0.020366179 -0.007793752
000330 96 29 44 3c c9 86 38 bc ec ee bd bb 4d b9 1a 3d
       0.0119728055 -0.011262604 -0.005796304 0.037774373
000340 45 cc da 3c 35 b3 38 bc 06 d7 99 bc 1a 17 c9 3b
       0.026708731 -0.011273195 -0.018779289 0.006136787
000350 e1 56 39 bd 37 7f f4 bb dc 8d ed ba b8 df b6 bb
       -0.04524887 -0.0074614543 -0.0018123942 -0.0055808686
000360 7f 6e fb 39 1e 99 5a 3c 99 d4 50 3c 03 bd 99 bb
       0.00047956777 0.01334217 0.012746 -0.0046917214
000370 6d 1b 5c bc e9 ef bf 3c 95 9a be 3c 7a c6 61 bc
       -0.013434273 0.023429828 0.02326707 -0.013780231
000380 f3 8c cf ba d7 c3 98 ba 6c 74 51 3c 9d 37 36 bd
       -0.0015834853 -0.0011655045 0.012784105 -0.04448663
000390 9b e5 df 3c 5e 3d 91 bc 08 32 53 bc ca 1a 20 3d
       0.027331164 -0.017729457 -0.012890346 0.039088048
0003a0 2c 37 ee bb a6 ff f9 bb a0 59 0a bc f2 e4 27 3c
       -0.0072697606 -0.0076293526 -0.00844422 0.010247456
0003b0 bb 9b 93 3a 42 55 d5 bc 12 ad ee bc 5f 62 b7 3b
       0.0011261621 -0.02604163 -0.02913526 0.0055964435
0003c0 cb 1a 10 3d a3 8c ef bc ef b5 c0 bc 71 0d b6 bb
       0.0351818 -0.029241866 -0.023524253 -0.0055558016
0003d0 46 23 76 3c c7 04 0a 39 64 48 0e bc b5 2b d3 bc
       0.015023058 0.00013162485 -0.008684251 -0.025777677
0003e0 a6 52 84 3b e0 0d 11 3c 22 94 a8 bc 2a 6a 36 3c
       0.004038173 0.008853406 -0.020578448 0.01113371
0003f0 69 9f fe bb 12 21 c8 3b 70 6f 39 3c ec 37 31 bb
       -0.007770468 0.006107458 0.011318073 -0.0027041389

lora_v_B f4 [4, 768]
000000 0a 79 11 bb 76 77 8d b7 a8 16 a8 3b 05 5d fb bb
       -0.002219739 -1.6864138e-05 0.005129654 -0.007671001
000010 d2 21 01 3d c9 79 8c 3c bb 04 93 3b 9c cf 8f 3c
       0.031526394 0.017147915 0.004486648 0.01755505
000020 c8 a6 1c b9 c4 61 80 bc 9b e3 fc bb 80 f2 cd ba
       -0.0001493945 -0.015671618 -0.0077175624 -0.001571253
000030 22 26 44 3c d4 de e7 bb d8 02 17 3b 81 61 d3 3b
       0.011971982 -0.0070761237 0.0023042466 0.0064508324
000040 79 93 90 bb 4b 09 b6 3c f5 3e f1 3b fd 25 39 3b
       -0.0044121114 0.022221228 0.0073622414 0.0028251403
000050 2d 6c bb 3b 82 ec 28 bc 73 b0 ac 3c bc 04 d2 bc
       0.0057196827 -0.010310294 0.021080231 -0.025637023
000060 b4 bb fd 3b 3e 67 5e 3c 74 9c 86 3c 4d f7 2d bc
       0.007743323 0.01357442 0.016432025 -0.010618043
000070 4e 84 4e bc de 7c 5b 3b 4f 63 84 3c 2c 3c 49 bc
       -0.012604786 0.0033491175 0.016160635 -0.0122824125
000080 fa 66 99 39 62 a4 5b bc 8a 25 3b bb 79 11 ce ba
       0.00029259158 -0.013405891 -0.002855631 -0.001572176
000090 4a 4e 77 3b 4a 52 aa b7 bf 80 0d 3c 99 92 f9 bb
       0.0037735873 -2.0303898e-05 0.0086366525 -0.0076163528
0000a0 5e 9d 43 bc c3 3c 79 3a eb 6f 72 bc 27 ca 70 3b
       -0.011939375 0.00095076504 -0.014797191 0.0036741586
0000b0 f0 30 56 bc d0 82 89 bc 80 da 38 bc 74 29 ad 3b
       -0.013073191 -0.01678601 -0.011282563 0.0052844826
0000c0 91 c0 c2 ba b5 04 b7 3c d7 1f 9d 3b 35 11 72 3c
       -0.0014858415 0.022341112 0.0047950554 0.01477461
0000d0 e2 80 24 3c 93 c5 4a bc 3d 07 9a bc 0f 8b 47 bc
       0.010040494 -0.012376207 -0.01880228 -0.01217915
0000e0 96 48 38 3c 24 10 88 3c 39 1b a1 bb bd 51 33 bc
       0.011247775 0.016609259 -0.0049165753 -0.010944781
0000f0 7c dc 8f 3b 67 8f b2 bb 6e 82 27 bc 55 7d ab bb
       0.0043902975 -0.005449224 -0.010223968 -0.0052334466
000100 f8 b8 00 bc ee 5b d6 bb 73 99 98 3b 61 3f 95 3c
       -0.0078566 -0.0065417206 0.0046569644 0.018218698
000110 c9 e1 36 bc 3b 8e 8b bc 40 cf b2 3b 12 f7 0b bc
       -0.01116223 -0.017035594 0.005456835 -0.008542793
000120 3d 3b 2a bc 8d d0 0c 3c 93 b0 c0 bc 5a 35 9b 3b
       -0.0103901 0.008594644 -0.023521697 0.0047365846
000130 30 95 10 bb ec 50 e1 3b 2c f9 03 3c e0 3c c0 bb
       -0.002206158 0.0068761017 0.008055013 -0.005866632
000140 6b c1 6d ba 12 ed 04 b8 90 35 13 3c 1b bd 42 3c
       -0.0009069654 -3.169204e-05 0.008984938 0.011885907
000150 fe f1 a4 bb 1d dd 8d ba 93 c4 e8 3b c3 a0 39 bb
       -0.0050337305 -0.0010823343 0.0071035116 -0.0028324581
000160 55 31 4b bb 54 0f c7 bb ff 37 80 bc a5 0f 70 bb
       -0.0031004746 -0.0060748253 -0.015651701 -0.0036630419
000170 b4 44 f8 bb 79 13 86 b9 71 16 29 bc 60 a4 a0 3b
       -0.0075765494 -0.0002557298 -0.010320292 0.0049024075
000180 46 3b 57 3a 11 c4 4c bc 3d 0d eb bb 28 28 b8 bb
       0.00082104316 -0.012497918 -0.007173209 -0.0056200214
000190 5c f9 68 3b 1f 80 b9 3c 3e e9 67 bb 5d 86 02 3c
       0.003554902 0.0226441 -0.0035386826 0.007966605
0001a0 3d f5 68 bc 0c 40 c0 3c 86 b2 1b 3c 32 17 d1 3b
       -0.014218626 0.02346804 0.0095030125 0.006380939
0001b0 59 eb 37 bc 71 89 83 3c 27 e0 c4 bb 1f c8 84 3c
       -0.011225545 0.016056748 -0.0060081664 0.016208706
0001c0 09 f7 20 bc ab 22 4b 3c 3b c8 c1 bb 6f e6 89 bb
       -0.009824523 0.012398402 -0.005913762 -0.004208378
0001d0 43 d3 26 3b cc 47 56 bb 60 80 bd 39 9f d7 e0 3b
       0.0025455512 -0.0032696603 0.00036144536 0.0068616415
0001e0 24 b3 94 ba 3b d9 5f 3c 3a 51 16 bc f6 27 fa bb
       -0.0011344892 0.013662632 -0.009174639 -0.0076341582
0001f0 b5 8f 05 bc f3 8e a4 bc c8 76 aa 3b 25 ca 4a 3c
       -0.008151938 -0.020087695 0.005202148 0.012377297
000200 86 05 21 bc b7 fb 9a bb 6b 7d 39 3b 30 05 2b 3c
       -0.009827977 -0.004729714 0.0028303515 0.0104382485
000210 ad ac 1a 3c 2c 5f 5f bc 15 e6 1b 3b 00 4b c2 3c
       0.009440583 -0.013633531 0.0023788263 0.023717403
000220 52 26 1a bb 1b fb c8 3b 7e 64 d8 3b f6 8e 5c bc
       -0.0023521376 0.0061334497 0.0066037765 -0.013461819
000230 7d 1c 6e 3c 84 c8 ea bc 9a 19 4f 3c a7 9d 58 3c
       0.014533159 -0.028660066 0.012640381 0.013221181
000240 a9 10 c7 bb 4e df 25 3c c9 b7 3f 3a 88 35 8a 3b
       -0.006074984 0.010124041 0.0007313458 0.004217807
000250 b5 13 93 bc cf 9c 06 3c 6e a5 86 3b b2 dc 32 3c
       -0.017953733 0.008216097 0.004109076 0.010916876
000260 2d 51 88 3b 4e 45 2d 3c e6 f5 c1 3c 59 4f bc 3b
       0.0041600675 0.010575606 0.023676824 0.0057467637
000270 88 e7 bb 3b d4 43 17 bc 65 93 dc 3b b7 51 dd bb
       0.005734388 -0.00923248 0.006731438 -0.006754126
000280 7d 61 5c 3c 90 d7 36 3b 59 91 ab 3b 93 ab 03 3c
       0.013450977 0.0027899481 0.0052358327 0.008036512
000290 d8 96 ad 3b 72 fb 0c 3b 71 fa 67 bc 88 44 98 3b
       0.005297523 0.0021512178 -0.014158831 0.0046468414
0002a0 d0 2c 05 bc e1 f1 21 bc 7e 93 a3 bb 08 ea 3c bb
       -0.00812836 -0.009884329 -0.0049919477 -0.0028826017
0002b0 e7 ec c2 3b 59 b4 b7 3b f0 e1 ec b9 49 08 a2 bb
       0.005948651 0.005606216 -0.00045181764 -0.0049448353
0002c0 aa 52 b2 bc ae a4 b0 bb 03 89 2f bc fb d5 3d bc
       -0.021767933 -0.005390725 -0.0107138185 -0.011586661
0002d0 e6 c1 46 3c 89 1e 5d 3c ac a7 1b bc c3 1b a6 3a
       0.01213119 0.01349605 -0.009500425 0.0012673069
0002e0 ea 99 cc 3a c3 e1 fc 3b 18 b7 a8 bb 8a 1f 85 bb
       0.0015609835 0.0077173426 -0.0051487796 -0.0040625976
0002f0 5d de 9c bb 69 5d f7 bb 08 db f3 b9 de 93 7d 3c
       -0.00478725 -0.007548977 -0.00046511763 0.015477149
000300 3b 13 bb 3c 3f e6 a4 bb de 71 f9 3b 13 09 0d 3c
       0.022836318 -0.0050323303 0.007612451 0.0086081205
000310 5a b2 54 3c e3 cb 09 3c b5 3c cc 3c a1 83 8a 3b
       0.012981975 0.008410427 0.024931291 0.004227117
000320 37 cd a4 3c 7d 43 3c bc 2d e3 d3 bb f2 c3 78 bc
       0.020117385 -0.0114907 -0.0064662904 -0.015183436
000330 d8 34 55 3b 10 e9 d9 ba 60 ee 2c bb 25 ef b0 3c
       0.0032532718 -0.0016625244 -0.00263872 0.021598408
000340 25 99 35 ba 7b f7 7d bc 99 3f cd 3b e3 52 f0 3b
       -0.00069274224 -0.0155008985 0.006263685 0.0073340996
000350 a1 62 86 bc bf 3c 14 3c e4 69 5f 3c 42 43 08 bc
       -0.016404452 0.009047686 0.013636086 -0.008316817
000360 b5 39 61 bb 4a d6 d0 3a 9d 3d c0 bb 6d ba 7e ba
       -0.0034366671 0.0015933004 -0.00586672 -0.00097171107
000370 3e 98 5e 3c 2f b4 ae bb 05 e3 ba 3b 13 07 5e bc
       0.013586102 -0.005331538 0.0057033324 -0.013551491
000380 67 a3 42 bc f2 77 5f bc 35 db 2b bc 03 27 50 bb
       -0.0118797785 -0.013639437 -0.010489275 -0.0031761534
000390 bb dd 3f 3c b1 8f 64 3c a1 9a 6e bb 0d 3d 3b bc
       0.0117105795 0.013950274 -0.0036408084 -0.01142813
0003a0 a3 f7 08 bc e7 b8 5c 3c bf 0f fd 3b 1a 62 62 3b
       -0.008359822 0.0134718185 0.0077228243 0.0034543336
0003b0 a1 5f ca bb 45 f8 a4 3c 9e 78 b3 bb 03 5c 91 3c
       -0.0061759506 0.020137915 -0.005477025 0.01774407
0003c0 33 3f 44 3c 94 4d 4e bb b2 f7 b5 3a 91 b7 6a b9
       0.0119779585 -0.0031479346 0.0013883023 -0.00022384363
0003d0 18 83 95 bb e2 8d e8 37 e4 e6 7f bc 7e 43 0f 3c
       -0.0045627467 2.7722625e-05 -0.015619013 0.008744119
0003e0 2b 5e 3e 3c fe db 41 bc 05 3b 5f 3c 72 8d ae 3c
       0.011619131 -0.011832235 0.013624911 0.02130768
0003f0 1b 39 a9 bb fe fe b9 3c d8 d3 2a bc 1f 28 6d 3c
       -0.005164278 0.022704598 -0.010426484 0.014474898
